best_mamba_model.pth (torch, 263788 bytes, 19 tensors)

encoder.0.weight f4 [32, 1, 3, 3]
-0.3344988 -0.27302256 -0.2739542 0.035162985 0.13540109 0.049901776 0.060680326 0.045367222
0.27706024 -0.12851651 -0.08867039 -0.02944999 0.27998492 -0.07329472 0.14340886 0.1573571
-0.00034205845 -0.3779612 0.0852663 -0.20042472 -0.33011484 -0.05937962 -0.35200843 0.024267659
-0.25123715 0.05638456 -0.23566337 0.3076033 -0.06901215 -0.13134788 -0.05915352 -0.00023666275
-0.12998506 -0.10097519 0.068637386 -0.02102033 -0.33611962 -0.11348224 0.089760035 -0.11151829
0.00036523814 -0.12690097 0.19285542 -0.10093416 0.2491943 0.18709497 -0.24688105 -0.15489246
0.0054397243 -0.05932826 -0.1949171 -0.16130579 -0.12985787 -0.17797112 0.29120612 0.15546943
0.00090527016 0.18162274 -0.34970924 -0.019874813 0.21008825 -0.18314482 0.13076557 0.41415766
0.1420866 0.263554 -0.33601865 0.13032873 0.1107076 -0.17648512 -0.385526 -0.19993941
-0.28291094 0.05518827 -0.08995589 0.041868933 0.39609015 0.41610035 -0.07788474 -0.17283608
-0.09145841 0.31213528 0.06996469 -0.12168776 -0.066480525 0.14713284 0.20549715 0.19373642
-0.20333143 0.055010628 0.20233569 0.14746718 0.22743222 0.28976265 -0.21731566 -0.08580987
-0.07556901 -0.09575326 -0.42940024 0.1763334 0.39797974 -0.18255311 0.23859994 -0.29550472
-0.3601662 0.14337455 -0.2893359 0.12830456 0.2600535 0.052237585 -0.1447206 -0.06751137
-0.09220932 0.10330963 0.21792494 -0.11204269 0.119125806 -0.40177536 -0.14207534 -0.14124063
0.22564001 0.22606617 0.24373397 0.02107129 0.20573919 -0.25389406 0.25232965 0.16718104
-0.2944826 0.0887664 -0.090578526 0.18733993 0.0059307795 -0.2981727 -0.04975166 -0.24374938
-0.19124013 0.0031713962 0.064871594 0.1533296 -0.32285103 -0.13401353 0.1602677 0.13523927
0.04142351 -0.08839365 -0.3325837 0.06770743 -0.32613772 0.2986175 -0.1241876 -0.19558074
-0.11990285 0.12907511 0.17343955 0.20816033 -0.016764956 -0.32352376 -0.07239564 0.1674532
0.24353503 0.27380392 -0.31742784 -0.15549186 -0.19122458 -0.018903662 -0.0839488 -0.2514072
-0.1960772 0.053897697 0.027417429 -0.044664096 0.28170022 -0.038298137 -0.06122054 -0.1603094
-0.40552464 0.4215694 0.24935219 -0.25505206 0.07117246 -0.2673638 -0.08810008 -0.055181857
0.22010225 0.006982528 0.01845426 0.0012114627 0.14135402 0.18059987 0.21192352 -0.30393788
0.08718836 0.16785322 -0.33484527 -0.20553364 -0.18427245 0.17207055 -0.3289004 0.2069134
0.0098128915 -0.23154822 0.24057245 0.19788341 0.048774015 -0.23465736 0.012298688 -0.07246261
-0.22080928 -0.32743582 0.16169563 0.3063856 0.14555857 -0.020857627 -0.17901573 0.14516668
0.14701784 -0.320423 0.1922677 0.13282484 0.216922 0.18563248 -0.15286252 0.21891679
-0.06714528 0.05711881 -0.25817788 0.063035406 -0.17825894 0.038611982 -0.26063374 0.0008146792
0.10219943 -0.10953128 0.3363726 0.22448806 -0.07466464 -0.28732744 -0.16252728 -0.11882633
0.036518995 0.08596604 0.32979757 0.034796666 -0.14464629 -0.23339202 -0.11732143 0.0031592352
-0.032744765 -0.1476685 0.11791576 0.24796961 -0.2870972 0.008074041 -0.1724972 -0.12379017
00000000: 6d43 abbe 9dc9 8bbe ba43 8cbe 1007 103d
00000010: 95a6 0a3e ce65 4c3d ef8b 783d fbd2 393d
00000020: d7da 8d3e d599 03be d298 b5bd 1b41 f1bc
00000030: 2f5a 8f3e 8b1b 96bd c6d9 123e 3822 213e
00000040: 4f56 b3b9 2184 c1be 19a0 ae3d 233c 4dbe
00000050: d004 a9be 0b38 73bd 733a b4be f8cc c63c
00000060: 28a2 80be 7ff3 663d bd51 71be 2e7e 9d3e
00000070: 3e56 8dbd 0f80 06be f64a 72bd ac28 78b9
00000080: ce1a 05be 15cc cebd c291 8c3d d432 acbc
00000090: df17 acbe 6069 e8bd 1cd4 b73d b463 e4bd
000000a0: 6f7d bf39 54f2 01be e47b 453e 92b6 cebd
000000b0: ca2c 7f3e d395 3f3e 63ce 7cbe 219c 1ebe
000000c0: b73f b23b 3102 73bd 5998 47be 582d 25be
000000d0: 76f9 04be 103e 36be f818 953e 6133 1f3e
000000e0: a74f 6d3a 50fb 393e 170d b3be 81d0 a2bc
000000f0: 6021 573e 518a 3bbe 69e7 053e 790c d43e
00000100: 267f 113e 8df0 863e a30a acbe e574 053e
00000110: abba e23d 84b8 34be aa63 c5be ebbc 4cbe
00000120: b4d9 90be 180d 623d cb3a b8bd c27e 2b3d
00000130: 54cc ca3e 1b0b d53e 0982 9fbd f1fb 30be
00000140: 8c4e bbbd 32d0 9f3e a649 8f3d 6f37 f9bd
00000150: f126 88bd fea9 163e d86d 523e d762 463e
00000160: 1d36 50be d352 613d 1631 4f3e a301 173e
00000170: fee3 683e c55b 943e ff87 5ebe 16bd afbd
00000180: edc3 9abd 491a c4bd 59da dbbe be90 343e
00000190: 00c4 cb3e 34ef 3abe 8b53 743e 654c 97be
000001a0: b467 b8be c7d0 123e d623 94be 4562 033e
000001b0: bb25 853e 14f7 553d a331 14be 6743 8abd
000001c0: 3dd8 bcbd 0094 d33d b727 5f3e a376 e5bd
000001d0: 3bf8 f33d 80b5 cdbe 337c 11be 62a1 10be
000001e0: 2d0e 673e e47d 673e 6695 793e b39d ac3c
000001f0: 4bad 523e 67fe 81be 5a31 813e 8231 2b3e
00000200: 6cc6 96be 29cb b53d 3c81 b9bd 0ad6 3f3e
00000210: fc56 c23b 18aa 98be 66c8 4bbd 7099 79be
00000220: 74d4 43be 33d7 4f3b 66db 843d 6f02 1d3e
00000230: bb4c a5be d83a 09be 371d 243e 2a7c 0a3e
00000240: b3ab 293d bb07 b5bd 6948 aabe 31aa 8a3d
00000250: 86fb a6be 65e4 983e 1256 febd 5146 48be
00000260: a08f f5bd 442c 043e 239a 313e fb27 553e
00000270: a956 89bc e8a4 a5be 2a44 94bd da78 2b3e
00000280: 3f61 793e 0730 8c3e e785 a2be 4239 1fbe
00000290: 60d0 43be dadb 9abc 59ed abbd 72b8 80be
000002a0: 76c8 48be d5c3 5c3d 849a e03c b3f1 36bd
000002b0: 033b 903e 82de 1cbd 64c2 7abd 2628 24be
000002c0: eda0 cfbe f2d7 d73e 2e56 7f3e 2f96 82be
000002d0: dec2 913d e8e3 88be d16d b4bd 5f06 62bd
000002e0: 7c62 613e b1cd e43b 632d 973c f1c9 9e3a
000002f0: 1cbf 103e 2cef 383e 7b02 593e bf9d 9bbe
00000300: d08f b23d b7e1 2b3e d770 abbe 6977 52be
00000310: ebb1 3cbe 4333 303e a265 a8be 1be1 533e
00000320: 40c6 203c fa1a 6dbe a058 763e f3a1 4a3e
00000330: 43c7 473d 054a 70be 7080 493c 4767 94bd
00000340: d41b 62be aba5 a7be 8a93 253e 93de 9c3e
00000350: 4e0d 153e 9ddd aabc e64f 37be 93a6 143e
00000360: d88b 163e 7c0e a4be d3e1 443e 3c03 083e
00000370: cd20 5e3e 7116 3e3e fe87 1cbe b92b 603e
00000380: 7783 89bd 6af5 693d e42f 84be b518 813d
00000390: 8389 36be 9927 1e3d c971 85be 3290 553a
000003a0: ef4d d13d f051 e0bd 0839 ac3e 33e0 653e
000003b0: c6e9 98bd 951c 93be 8d6d 26be 385b f3bd
000003c0: f194 153d f70e b03d 3adb a83e f386 0e3d
000003d0: 281e 14be 51fe 6ebe 3846 f0bd 2c0b 4f3b
000003e0: 601f 06bd 6936 17be d17d f13d bfeb 7d3e
000003f0: 67fe 92be fc48 043c 1ba3 30be b385 fdbd

encoder.0.bias f4 [32]
0.065765664 0.05527225 -0.28927225 0.23169826 0.08253966 -0.124864906 -0.1997451 -0.017136293
-0.17814422 0.2428476 -0.00888107 -0.06285849 0.3022701 0.085821286 -0.023340166 0.1071942
-0.10648044 -0.064869836 0.07186199 -0.21024778 0.22585085 0.061922994 -0.0026408925 -0.01195503
-0.15580855 0.21578948 -0.2314409 0.076646335 -0.03988937 0.040940356 -0.23822132 0.13798298
00000000: 26b0 863d 2865 623d 7e1b 94be 4f42 6d3e
00000010: 8e0a a93d 2cb9 ffbd fb89 4cbe 6961 8cbc
00000020: 706b 36be 0bad 783e e881 11bc f4bb 80bd
00000030: 26c3 9a3e 12c3 af3d e033 bfbc a288 db3d
00000040: 6b12 dabd 7ada 84bd 612c 933d 324b 57be
00000050: 7245 673e f7a2 7d3d d312 2dbb 08df 43bc
00000060: 478c 1fbe ebf7 5c3e d8fe 6cbe c1f8 9c3d
00000070: 0963 23bd 13b1 273d 4af0 73be 694b 0d3e

encoder.3.weight f4 [64, 32, 3, 3]
-0.03346515 -0.009656157 0.059304327 -0.015232754 -0.027240321 -0.011474508 -0.042402558 0.02099761
0.062372655 -0.0016771546 -0.0029954906 0.001272886 0.013092931 0.015604537 -0.044277083 0.01530851
-0.012182796 -0.04037952 -0.041760664 -0.045338873 0.03740182 -0.13049653 0.025534265 -0.010418675
-0.09417121 0.024055803 0.01266874 -0.03277781 -0.0029983886 -0.058977176 -0.06285472 0.038888276
0.027867395 -0.0039515034 -0.04656495 -0.021760436 0.02173409 0.04813339 -0.0129555985 0.034097634
0.032910615 -0.033473343 -0.04243177 0.0074510654 0.055447556 -0.04707512 -0.024983369 -0.06662957
-0.049637385 0.017717212 0.014356426 -0.1040603 -0.049947012 -0.03461701 -0.04213107 0.02212131
-0.05494927 0.033737857 0.021429557 0.04751244 0.0059555094 0.012610978 0.05124735 0.17517765
0.21761888 0.17925854 0.11793323 0.10293143 0.07884669 0.10299081 0.0918975 0.1872075
-0.07282 -0.09178118 -0.09498372 -0.028773386 0.024914837 0.022553539 0.074382 0.054844573
0.06066549 0.00096620154 0.03353723 -0.0562187 0.018783389 0.02483416 0.047442637 -0.0028540539
-0.03590791 -0.023831006 0.13197476 0.087468594 0.07652872 0.013822068 0.07399196 -0.012688887
0.11471979 0.05435225 0.098928995 0.017720878 0.09631433 0.088532664 -0.004620081 0.058483113
0.03304065 0.007497212 0.07177836 0.017949972 -0.039603654 0.0088623455 -0.04993543 -0.03778585
-0.028436005 -0.037054136 -0.028449887 0.040364563 -0.05576449 0.025699345 -0.0031207902 -0.042705815
0.019925116 0.0051687444 0.07667665 0.05730602 -0.02368101 0.07228333 0.04409666 0.07206712
0.052483797 0.017302139 0.095891625 0.044781562 0.09610473 0.099367134 0.096996576 0.043703787
-0.013596481 0.056321938 0.057208445 -0.014335419 0.042134516 -0.047730472 0.029046118 0.032740794
-0.06932211 0.009438065 0.04269938 -0.0894012 0.021544384 -0.060557626 -0.063953415 0.012627784
-0.09162709 -0.077762716 0.031231647 -0.06948504 -0.02500463 0.019631129 -0.04355906 0.032931346
-0.022390317 -0.0020955352 0.0094396705 0.049137432 -0.041277472 -0.06128093 0.046938285 -0.05474161
0.025093034 -0.044651818 -0.07071543 -0.002941869 -0.07334608 -0.17704967 -0.14276645 -0.14604089
-0.13694261 -0.06656895 -0.097096816 -0.09868309 -0.048968945 -0.055912897 -0.010551092 0.020355616
-0.025711827 0.03961565 0.021596702 -0.055538516 0.04057414 -0.026821386 -0.03613232 -0.04841183
-0.035580512 -0.002644417 -0.051258735 0.0053136363 -0.028215455 0.047337186 0.059584383 0.04893916
0.033380892 0.048137892 -0.0008869301 0.055657312 0.02588846 0.09346075 0.06449935 0.19896019
0.09047602 0.16255367 0.20691471 0.13917935 0.18450408 0.20353657 0.19127676 0.17748347
0.011554811 0.03856524 0.02781204 -0.047270704 0.015924342 0.034011964 0.045596328 0.020863667
-0.025984148 0.019212797 0.051213626 -0.0053881034 -0.00668968 0.038263608 0.0032735707 -0.019671958
-0.0541539 0.030747585 -0.027787227 -0.04198263 -0.036028653 0.016019978 -0.02911478 0.03600716
0.060049 0.037498605 0.028853297 0.00026533147 0.014424629 0.04821821 -0.025630174 0.011024399
0.07087568 -0.054927543 0.059861604 -0.046842333 -0.015901303 -0.023106227 -0.023734344 0.009632374
00000000: c112 09bd dc34 1ebc 18e9 723d cd92 79bc
00000010: 1827 dfbc 93ff 3bbc 4eae 2dbd 2e03 ac3c
00000020: 787a 7f3d f8d3 dbba fe4f 44bb f7d6 a63a
00000030: bc83 563c 2caa 7f3c e35b 35bd 8bd0 7a3c
00000040: 5a9a 47bc ff64 25bd 3b0d 2bbd 41b5 39bd
00000050: a732 193d e2a0 05be 3c2d d13c 17b3 2abc
00000060: d6dc c0bd ad10 c53c 8c90 4f3c 0642 06bd
00000070: 9d80 44bb 0d92 71bd fab9 80bd 5049 1f3d
00000080: 2a4a e43c 9d7b 81bb e4ba 3ebd f142 b2bc
00000090: b10b b23c 8427 453d b843 54bc f6a9 0b3d
000000a0: 48cd 063d 581b 09bd f0cc 2dbd 1128 f43b
000000b0: fa1c 633d d7d1 40bd eca9 ccbc 1675 88bd
000000c0: 9250 4bbd b023 913c 3737 6b3c 911d d5bd
000000d0: 3d95 4cbd 91ca 0dbd a191 2cbd c037 b53c
000000e0: 7c12 61bd b530 0a3d 0a8d af3c 679c 423d
000000f0: 6f26 c33b 479e 4e3c bee8 513d c561 333e
00000100: 7cd7 5e3e 8d8f 373e fa86 f13d b7cd d23d
00000110: 607a a13d d9ec d23d c234 bc3d 53b3 3f3e
00000120: a722 95bd c5f7 bbbd d386 c2bd 2ab6 ebbc
00000130: 331a cc3c 33c2 b83c 9755 983d b4a4 603d
00000140: 607c 783d b048 7d3a 565e 093d 9445 66bd
00000150: 9fdf 993c 0271 cb3c 3653 423d 140b 3bbb
00000160: 2c14 13bd 3e39 c3bc 6424 073e bc22 b33d
00000170: 17bb 9c3d f575 623c 1989 973d 0de5 4fbc
00000180: 36f2 ea3d 77a0 5e3d 499b ca3d 602b 913c
00000190: 7340 c53d 9d50 b53d 0c64 97bb fd8b 6f3d
000001a0: a255 073d 2cab f53b 8800 933d d20b 933c
000001b0: 7137 22bd 5f33 113c 1889 4cbd 56c5 1abd
000001c0: a0f2 e8bc 14c6 17bd bd0f e9bc 5055 253d
000001d0: 4e69 64bd 6f87 d23c 2c86 4cbb 4bec 2ebd
000001e0: ff39 a33c 925e a93b a608 9d3d b8b9 6a3d
000001f0: adfe c1bc 4809 943d b39e 343d ed97 933d
00000200: 40f9 563d 37bd 8d3c d462 c43d df6c 373d
00000210: 8fd2 c43d ff80 cb3d 24a6 c63d be02 333d
00000220: c6c3 5ebc d5b1 663d 6753 6a3d 1bdf 6abc
00000230: 3e95 2c3d 0781 43bd 20f2 ed3c 361b 063d
00000240: c0f8 8dbd 1da2 1a3c 8ce5 2e3d fa17 b7bd
00000250: d97d b03c 460b 78bd 02fa 82bd c4e4 4e3c
00000260: fca6 bbbd 0f42 9fbd 83d9 ff3c 2c4e 8ebd
00000270: 83d6 ccbc 76d1 a03c fc6a 32bd 05e3 063d
00000280: e66b b7bc 3f55 09bb d9a8 1a3c 5544 493d
00000290: 9112 29bd b601 7bbd 5c42 403d bd38 60bd
000002a0: e88f cd3c d3e4 36bd 40d3 90bd 5fcc 40bb
000002b0: 7836 96bd 824c 35be 5e31 12be be8b 15be
000002c0: af3a 0cbe 4d55 88bd b2da c6bd 5c1a cabd
000002d0: a993 48bd ec04 65bd 7dde 2cbc d2c0 a63c
000002e0: 9ca1 d2bc 0544 223d 91eb b03c 5b7c 63bd
000002f0: 1231 263d 86b8 dbbc 7cff 13bd 7c4b 46bd
00000300: dfbc 11bd f54d 2dbb aef4 51bd 031e ae3b
00000310: 1924 e7bc a3e4 413d c10e 743d 6e74 483d
00000320: 67ba 083d 3d2c 453d df80 68ba ecf8 633d
00000330: 0914 d43c 5a68 bf3d 3c18 843d 38bc 4b3e
00000340: 7e4b b93d 7874 263e 73e1 533e 0885 0e3e
00000350: a3ee 3c3e e46b 503e 0ede 433e 3abe 353e
00000360: 6450 3d3c 96f6 1d3d 13d6 e33c ed9e 41bd
00000370: c473 823c 2150 0b3d 37c3 3a3d 48ea aa3c
00000380: b5dc d4bc 2864 9d3c 61c5 513d b08e b0bb
00000390: 1a35 dbbb 4dba 1c3d 6789 563b 1627 a1bc
000003a0: 7bd0 5dbd 5ce2 fb3c 0aa2 e3bc faf5 2bbd
000003b0: c892 13bd 543c 833c 1e82 eebc 3e7c 133d
000003c0: f1f5 753d 2398 193d c05d ec3c 301c 8b39
000003d0: 4755 6c3c 7580 453d 5ff6 d1bc ae9f 343c
000003e0: 4527 913d b4fb 60bd 7131 753d bfdd 3fbd
000003f0: 7343 82bc 4549 bdbc 876e c2bc 1bd1 1d3c

encoder.3.bias f4 [64]
0.008315543 -0.0015622299 -0.025486937 0.009053782 0.0207969 0.00042744676 -0.07172211 -0.04834621
-0.04697093 -0.014263382 -0.0032872825 -0.05517861 -0.042005517 -0.027006743 -0.0186549 0.05428187
-0.06518846 -0.049652457 -0.0011321026 0.03237476 -0.0068611093 0.010585931 -0.005690616 -0.06768286
-0.06196054 -0.017297704 -0.036224715 0.027359206 0.030039934 0.040893506 -0.07278313 -0.046260472
-0.044683587 0.02895368 0.02712883 -0.05287181 0.030589998 -0.0356713 0.00234932 0.0055577112
-0.01006848 0.027465524 -0.016539006 -0.039269093 0.06353598 -0.030836804 -0.02719393 0.043820977
0.019438913 -0.0044384985 0.022140494 0.054824132 -0.051390767 -0.04185843 -0.044935748 -0.05277557
0.017292319 0.015753023 -0.05289829 -0.10404004 -0.076450676 0.02495536 -0.076284364 0.083018
00000000: ea3d 083c bdc3 ccba fbc9 d0bc 5056 143c
00000010: 435e aa3c ef1a e039 0be3 92bd ad06 46bd
00000020: 9764 40bd f6b0 69bc 736f 57bb f702 62bd
00000030: fa0d 2cbd 3f3d ddbc 29d2 98bc ab56 5e3d
00000040: 8781 85bd 6060 4bbd 0f63 94ba 659b 043d
00000050: 28d3 e0bb 9d70 2d3c 5978 babb 509d 8abd
00000060: 56ca 7dbd eab3 8dbc 5e60 14bd 6a20 e03c
00000070: 4f16 f63c f37f 273d 520f 95bd 9f7b 3dbd
00000080: 2306 37bd 4530 ed3c 483d de3c 1c90 58bd
00000090: e097 fa3c 121c 12bd 0df7 193b 761d b63b
000000a0: 44f6 24bc 61ff e03c cf7c 87bc a1d8 20bd
000000b0: 271f 823d 779d fcbc cec5 debc a07d 333d
000000c0: 5b3e 9f3c d370 91bb fb5f b53c 458f 603d
000000d0: 207f 52bd bf73 2bbd 8c0e 38bd 322b 58bd
000000e0: 9fa8 8d3c 7c0c 813c e1ab 58bd f212 d5bd
000000f0: 2c92 9cbd 2f6f cc3c fa3a 9cbd 5705 aa3d

mamba_input_proj.weight f4 [64, 64]
-0.113169655 -0.11436537 0.11747425 0.094735935 0.046488773 0.13186543 -0.02670394 -0.07850094
-0.094583385 0.04307052 -0.0003748688 0.13803947 -0.092324995 0.05566215 -0.057582032 -0.1243998
0.06980674 -0.05865601 0.10060849 0.11560508 0.09908345 0.025397636 -0.065388694 0.033771437
0.12634529 -0.06359533 -0.047857128 0.12199977 -0.0059946976 -0.16415288 0.05074161 0.039952893
0.004461419 -0.032451 0.0044571594 0.07933819 0.13168949 -0.06544423 0.14964186 0.124371536
-0.000355859 -0.102669805 0.1291864 0.021417465 -0.11569766 -0.08962307 0.04296368 -0.06610442
0.015389865 -0.06236001 0.07076615 0.008981466 0.115703546 0.0025346004 -0.05587881 0.014192804
0.09454043 -0.06551838 0.11182126 -0.044535596 0.041122947 0.08480194 0.046102867 -0.19489849
0.035854436 0.13087317 0.039317362 -0.0482255 -0.09234088 0.12132167 -0.06167404 -0.10357379
0.08949815 -0.033196844 0.084128305 0.1188572 -0.012081717 -0.03175817 0.057868626 -0.030766195
0.0601925 -0.09150331 0.07173957 0.14376198 -0.086307675 0.08772656 0.02378399 -0.03377468
-0.11214526 -0.10489386 -0.12712863 0.12897773 0.002999302 -0.11541828 -0.023536889 -0.04713079
-0.0928387 -0.04716093 0.06765347 -0.004663014 0.13656892 -0.027761497 0.042831667 -0.031925477
0.052601796 0.05944223 0.02990845 -0.06710087 -0.093889505 -0.0639448 0.0064461576 0.11984765
-0.048999295 -0.06370595 -0.014943541 -0.033401333 0.10655985 -0.0066178497 -0.04231212 -0.086171314
-0.034901343 0.036843315 -0.04350211 -0.011428959 0.06359756 -0.07239837 0.03728654 -0.04040988
0.01249773 -0.025897786 -0.042322565 -0.042302176 -0.091207184 0.09805743 0.06721557 0.03573669
0.09477269 -0.07706961 -0.10610944 -0.039810516 -0.037323598 -0.034201425 -0.07511953 0.070019126
0.031887233 -0.08009952 0.0658986 -0.16330236 0.04318864 0.003610167 0.1190491 -0.09098711
0.0049640946 0.11844494 -0.1861176 0.08057037 0.007543156 0.32053098 0.056366384 -0.117764525
0.004017003 0.042832125 -0.20793249 -0.20421433 -0.083986364 -0.11892722 -0.051997308 0.0629888
-0.14382307 0.032196596 -0.15259783 -0.06931397 -0.046508737 -0.013389042 -0.15412094 0.00776215
-0.14134207 0.1465734 -0.09909381 0.07091293 0.04143323 0.07225591 0.11611683 -0.09395639
-0.106598526 -0.10008614 -0.045733884 -0.03125402 0.032300655 0.048195064 -0.058691557 0.042331073
-0.11717905 -0.11058368 0.029517805 0.042338725 0.028133957 0.08259583 -0.082467034 0.05912105
-0.09226323 -0.17807215 -0.08234416 -0.1368854 0.11603826 0.034018733 -0.12960851 0.1835326
-0.14555776 0.021838346 -0.14051871 -0.06735053 0.05704111 -0.11671829 -0.09070521 -0.120855205
-0.010483267 -0.03471299 0.026899891 -0.08269348 0.06768732 0.12768857 -0.15246034 0.01995409
0.10603703 0.017724175 0.01567567 -0.11257963 0.03974974 0.09577573 -0.006904472 0.0018364887
-0.043694064 0.106625125 0.0434781 0.0022693656 0.1501873 -0.031946678 -0.046242435 -0.010612298
0.09551489 0.004081248 -0.041963067 0.013034209 -0.13059247 -0.1454461 -0.030002607 -0.07388902
0.0037933525 -0.076375164 -0.111437365 0.025353892 -0.14263502 0.122250125 -0.060139418 -0.02558746
00000000: 7ec5 e7bd 6438 eabd 5796 f03d ea04 c23d
00000010: 036b 3e3d bb07 073e 39c2 dabc 1ac5 a0bd
00000020: efb4 c1bd b76a 303d 0a8a c4b9 385a 0d3e
00000030: e314 bdbd fffd 633d 23db 6bbd 53c5 febd
00000040: d6f6 8e3d 4941 70bd d30b ce3d 5bc2 ec3d
00000050: 44ec ca3d b40e d03c 82ea 85bd eb53 0a3d
00000060: a960 013e 453e 82bd d605 44bd 04db f93d
00000070: 2b6f c4bb b117 28be 6fd6 4f3d a5a5 233d
00000080: 1831 923b 57eb 04bd 5d0d 923b 107c a23d
00000090: 9cd9 063e a007 86bd b73b 193e 81b6 fe3d
000000a0: 9692 bab9 8c44 d2bd 7149 043e ae73 af3c
000000b0: e5f2 ecbd 4d8c b7bd affa 2f3d c161 87bd
000000c0: c625 7c3c 366d 7fbd d8ed 903d 0027 133c
000000d0: fbf5 ec3d 8a1b 263b 2ee1 64bd ef88 683c
000000e0: 6a9e c13d 802e 86bd 8b02 e53d f56a 36bd
000000f0: 8970 283d a4ac ad3d 5cd6 3c3d 7893 47be
00000100: 1adc 123d 9e03 063e 3e0b 213d 1a88 45bd
00000110: 371d bdbd 7f77 f83d eb9d 7cbd 7f1e d4bd
00000120: ce4a b73d 6af9 07bd 764b ac3d 676b f33d
00000130: 65f2 45bc db14 02bd a707 6d3d 6309 fcbc
00000140: 698c 763d 1666 bbbd 32ec 923d 5736 133e
00000150: 14c2 b0bd fca9 b33d a4d6 c23c 5257 0abd
00000160: 6aac e5bd 98d2 d6bd 022e 02be bd12 043e
00000170: f08f 443b 6b60 ecbd 6fd0 c0bc 370c 41bd
00000180: 3722 bebd d22b 41bd e78d 8a3d 32cc 98bb
00000190: b9d8 0b3e 146c e3bc 4270 2f3d 4ac4 02bd
000001a0: fb74 573d b279 733d 9102 f53c 2e6c 89bd
000001b0: 2449 c0bd 7ef5 82bd 4a3a d33b af72 f53d
000001c0: 7cb3 48bd 4478 82bd c1d5 74bc d6cf 08bd
000001d0: 0d3c da3d 8cda d8bb 794f 2dbd 967a b0bd
000001e0: b6f4 0ebd 04e9 163d 452f 32bd 8740 3bbc
000001f0: 703f 823d 9945 94bd c5b9 183d d584 25bd
00000200: 47c3 4c3c 9827 d4bc 6d5a 2dbd 0c45 2dbd
00000210: d5ca babd 55d2 c83d 51a8 893d a360 123d
00000220: 2f18 c23d acd6 9dbd e84f d9bd 5a10 23bd
00000230: a1e0 18bd cb16 0cbd 45d8 99bd 3066 8f3d
00000240: 309c 023d 380b a4bd d8f5 863d bc38 27be
00000250: 92e6 303d 8d98 6c3b 04d0 f33d 7357 babd
00000260: d8a9 a23b 4393 f23d 9d95 3ebe 1402 a53d
00000270: 942c f73b a31c a43e 70e0 663d 872e f1bd
00000280: 10a1 833b bd70 2f3d 41ec 54be 901d 51be
00000290: 0b01 acbd 1d90 f3bd 21fb 54bd 4600 813d
000002a0: 5b46 13be 94e0 033d 9b42 1cbe 7cf4 8dbd
000002b0: f27f 3ebd b65d 5bbc e1d1 1dbe a259 fe3b
000002c0: fabb 10be 5617 163e b2f1 cabd cc3a 913d
000002d0: e4b5 293d e8fa 933d a9ce ed3d 356c c0bd
000002e0: 5450 dabd f6f9 ccbd 7453 3bbd 3704 00bd
000002f0: b14d 043d 3068 453d 8f66 70bd 5963 2d3d
00000300: 92fb efbd b279 e2bd 53cf f13c 5f6b 2d3d
00000310: 2f79 e63c 0128 a93d 7ae4 a8bd ea28 723d
00000320: 81f4 bcbd 8c58 36be 0ea4 a8bd b02b 0cbe
00000330: 78a5 ed3d 3a57 0b3d 18b8 04be f8ef 3b3e
00000340: 180d 15be 55e6 b23c 23e4 0fbe 13ef 89bd
00000350: f0a3 693d 000a efbd a7c3 b9bd ef82 f7bd
00000360: 02c2 2bbc 352f 0ebd 295d dc3c 335b a9bd
00000370: a69f 8a3d cbc0 023e 901e 1cbe c276 a33c
00000380: f129 d93d 4a32 913c 436a 803c 2690 e6bd
00000390: a0d0 223d 1126 c43d e93e e2bb 56b6 f03a
000003a0: 8cf8 32bd 465e da3d 1816 323d a3b9 143b
000003b0: b3ca 193e 85da 02bd b568 3dbd 34df 2dbc
000003c0: 509d c33d fdbb 853b 77e1 2bbd 6f8d 553c
000003d0: 08ba 05be d3ef 14be 07c8 f5bc 2053 97bd
000003e0: e599 783b 956a 9cbd 4639 e4bd f7b2 cf3c
000003f0: ea0e 12be 465e fa3d c054 76bd cb9c d1bc

mamba_input_proj.bias f4 [64]
0.041358083 -0.045231245 0.11142834 0.066252604 -0.07500526 0.055819765 0.08925253 0.05814773
0.14549878 -0.04039593 0.012397661 0.11384319 0.044907194 -0.0639822 0.0052328673 -0.118286625
-0.09235671 -0.001992537 0.14739229 0.03718358 -0.114216626 0.089924276 -0.11818902 0.11452601
0.0938835 0.01778942 0.055883344 0.037492014 -0.15227756 0.08711564 0.10897225 -0.02121307
-0.050115444 -0.1258109 -0.043444436 0.093363136 0.14259943 0.068141304 0.07831823 0.009657125
0.008174039 0.12520745 0.016851228 -0.12440069 -0.14833131 0.025110938 -0.09680965 0.13444082
0.1275132 -0.1316148 -0.09578793 0.04411428 0.040625386 -0.10325181 -0.13449861 -0.04344801
0.11853021 -0.07627968 -0.028944733 0.085775055 0.095039956 0.035467237 -0.103757046 0.053792946
00000000: 1867 293d 6644 39bd 8b34 e43d 72af 873d
00000010: 5c9c 99bd 44a3 643d 08ca b63d 502c 6e3d
00000020: a2fd 143e 3476 25bd 8f1f 4b3c 9e26 e93d
00000030: 9bf0 373d 1a09 83bd 7978 ab3b 4240 f2bd
00000040: 8425 bdbd 3995 02bb 01ee 163e cf4d 183d
00000050: 68ea e9bd 382a b83d 160d f2bd 9d8c ea3d
00000060: fe45 c03d 1ebb 913c efe5 643d 3a91 193d
00000070: a6ee 1bbe af69 b23d d82c df3d 08c7 adbc
00000080: da45 4dbd 93d4 00be cbf2 31bd 2c35 bf3d
00000090: 9605 123e ab8d 8b3d 4f65 a03d eb38 1e3c
000000a0: 68ec 053c 6236 003e 960b 8a3c cac5 febd
000000b0: 2ae4 17be 74b5 cd3c 2344 c6bd dbaa 093e
000000c0: d292 023e 08c6 06be 762c c4bd 2db1 343d
000000d0: ce66 263d af75 d3bd 01ba 09be 8af6 31bd
000000e0: f7bf f23d 8538 9cbd 811d edbc d5aa af3d
000000f0: 4fa4 c23d 1846 113d 937e d4bd fe55 5c3d

mamba.A_log f4 [128, 16]
0.020518316 0.6963671 1.11151 1.3914032 1.6347829 1.7622709 1.9643955 2.0754795
2.2193422 2.3278105 2.4303896 2.522103 2.6354938 2.6578 2.7339852 2.8069274
-0.029336745 0.66441786 1.1104307 1.4335027 1.6211034 1.7947125 1.9592448 2.0872796
2.2312846 2.3239145 2.3895075 2.5009494 2.5402951 2.64272 2.7190928 2.7567894
0.019691693 0.7111886 1.107042 1.4435711 1.6056546 1.8043363 1.9863272 2.1167533
2.2182567 2.323577 2.4307725 2.5024228 2.6334727 2.641939 2.7155252 2.80131
-0.023819495 0.7133747 1.143365 1.4022495 1.599228 1.7758008 1.9582152 2.0858727
2.21163 2.2960165 2.361235 2.467394 2.5599146 2.5958648 2.6844718 2.730433
-0.013846981 0.6797222 1.0682093 1.3621216 1.574677 1.7614458 1.9181778 2.0217328
2.1771214 2.280568 2.3275044 2.448378 2.4855971 2.5925865 2.6745315 2.7307053
0.013347213 0.7178881 1.1145253 1.389569 1.6436294 1.7697163 1.9921204 2.0646935
2.2509618 2.3559773 2.3987598 2.563039 2.6246412 2.6998317 2.7770743 2.8052907
-0.0017953276 0.7191725 1.1493782 1.4119188 1.5995301 1.7860914 1.9742211 2.0659926
2.2191505 2.2937818 2.3209136 2.4745471 2.5258653 2.6212208 2.6959589 2.7259638
0.019683056 0.7353662 1.1874453 1.4597614 1.6144203 1.821326 1.9743365 2.1327019
2.254206 2.3566387 2.4019787 2.5370953 2.595474 2.6898785 2.764729 2.7728305
-0.006044299 0.70391124 1.1434551 1.4594887 1.5998628 1.8744472 1.9860909 2.1611855
2.232669 2.338959 2.4610991 2.5207307 2.6350446 2.6468668 2.7228615 2.7955487
0.010666591 0.7375551 1.0942863 1.3993554 1.6164163 1.7926985 1.9404951 2.0883222
2.232007 2.3265624 2.3714712 2.4954197 2.5332923 2.6534653 2.7247517 2.7440372
0.02267442 0.7646516 1.1336918 1.3748026 1.6436574 1.7320199 2.0373683 2.0272486
2.2501578 2.3672874 2.3573563 2.565673 2.5873575 2.7318015 2.8066506 2.793996
0.028714618 0.6943627 1.1046076 1.3801632 1.6384745 1.8309927 1.9502196 2.0925415
2.1847074 2.288434 2.4459321 2.4557967 2.6014915 2.5534132 2.6385727 2.810985
0.033339463 0.71789056 1.0797024 1.3567384 1.585348 1.7931677 1.9338133 2.0734525
2.1539524 2.2471523 2.3818822 2.428696 2.5278687 2.555902 2.6396327 2.7583647
0.03799301 0.75507635 1.1490504 1.3951961 1.6241777 1.7907293 2.0458746 2.1173298
2.2071767 2.3129685 2.4043536 2.5107841 2.6130102 2.6378481 2.7086926 2.6785836
-0.016209759 0.687656 1.1130372 1.4301387 1.6281751 1.7942135 1.950489 2.0803816
2.2224014 2.3299177 2.4071538 2.4914722 2.6017396 2.637166 2.7180784 2.7747798
0.017379958 0.7058035 1.0893682 1.3914895 1.5929159 1.7878236 1.9258785 2.0887394
2.1829202 2.2927253 2.3797207 2.4470134 2.545274 2.5815828 2.6563945 2.7538202
00000000: 0716 a83c 1d45 323f f645 8e3f 8019 b23f
00000010: 9140 d13f 1892 e13f 5071 fb3f a8d4 0440
00000020: b409 0e40 d9fa 1440 818b 1b40 236a 2140
00000030: eeab 2840 6519 2a40 9df9 2e40 b3a4 3340
00000040: 9d53 f0bc 4a17 2a3f 9822 8e3f 047d b73f
00000050: 5180 cf3f 24b9 e53f 89c8 fa3f fd95 0540
00000060: 5ecd 0e40 04bb 1440 b1ed 1840 8e0f 2040
00000070: 3294 2240 5322 2940 9e05 2e40 3d6f 3040
00000080: 7950 a13c 7510 363f 8db3 8d3f f0c6 b83f
00000090: 1786 cd3f 7ef4 e63f f83f fe3f e378 0740
000000a0: ebf7 0d40 7cb5 1440 c791 1b40 b227 2040
000000b0: d18a 2840 8715 2940 2acb 2d40 aa48 3340
000000c0: 1a21 c3bc b99f 363f c959 923f e97c b33f
000000d0: 81b3 cc3f 714d e33f cca6 fa3f f07e 0540
000000e0: 598b 0d40 eff1 1240 791e 1740 c9e9 1d40
000000f0: a4d5 2340 a622 2640 63ce 2b40 6abf 2e40
00000100: 73de 62bc 4602 2e3f 15bb 883f 005a ae3f
00000110: 048f c93f 0e77 e13f da86 f53f 1264 0140
00000120: f555 0b40 d3f4 1140 d5f5 1440 3ab2 1c40
00000130: 0614 1f40 f0ec 2540 862b 2b40 e0c3 2e40
00000140: 45ae 5a3c 84c7 373f c4a8 8e3f 66dd b13f
00000150: 7362 d23f 1086 e23f cdfd fe3f f023 0440
00000160: c20f 1040 55c8 1640 4885 1940 d508 2440
00000170: 1ffa 2740 0bca 2c40 96bb 3140 e289 3340
00000180: 3351 ebba b01b 383f d31e 933f c1b9 b43f
00000190: 67bd cc3f a59e e43f 47b3 fc3f 3939 0440
000001a0: 9006 0e40 52cd 1240 d989 1440 fb5e 1e40
000001b0: c7a7 2140 15c2 2740 978a 2c40 3176 2e40
000001c0: 5c3e a13c f640 3c3f 35fe 973f 76d9 ba3f
000001d0: 53a5 ce3f 3621 e93f 0fb7 fc3f 307e 0840
000001e0: e944 1040 2bd3 1640 05ba 1940 c55f 2240
000001f0: 3f1c 2640 f826 2c40 52f1 3040 0e76 3140
00000200: 410f c6bb 8733 343f bd5c 923f 87d0 ba3f
00000210: 4ec8 cc3f e3ed ef3f 3a38 fe3f dd50 0a40
00000220: 0de4 0e40 81b1 1540 a682 1d40 a753 2140
00000230: 92a4 2840 4466 2940 5d43 2e40 45ea 3240
00000240: edc2 2e3c 69d0 3c3f 9311 8c3f 141e b33f
00000250: bbe6 ce3f 2577 e53f 2562 f83f 12a7 0540
00000260: 34d9 0e40 66e6 1440 2fc6 1740 f5b4 1f40
00000270: 7621 2240 60d2 2940 5562 2e40 4e9e 2f40
00000280: b5bf b93c 35c0 433f d01c 913f 88f9 af3f
00000290: 5e63 d23f d4b2 dd3f 3e64 0240 71be 0140
000002a0: 9602 1040 a381 1740 edde 1640 fd33 2440
000002b0: 4497 2540 d6d5 2e40 2aa0 3340 d5d0 3240
000002c0: eb3a eb3c c1c1 313f c863 8d3f 30a9 b03f
000002d0: 88b9 d13f f85d ea3f cca0 f93f 33ec 0540
000002e0: 3fd2 0b40 b475 1240 278a 1c40 c62b 1d40
000002f0: d67e 2640 1f6b 2340 60de 2840 2ee7 3340
00000300: f68e 083d adc7 373f b033 8a3f 9ba9 ad3f
00000310: afec ca3f 8586 e53f 3287 f73f 72b3 0440
00000320: 5bda 0940 58d1 0f40 c270 1840 c16f 1b40
00000330: 9ac8 2140 e693 2340 beef 2840 0c89 3040
00000340: 8f9e 1b3d af4c 413f 1514 933f c995 b23f
00000350: 0ee5 cf3f 9e36 e53f 9cef 0240 5582 0740
00000360: 6242 0d40 ad07 1440 eee0 1940 b0b0 2040
00000370: 8f3b 2740 81d2 2840 385b 2d40 ea6d 2b40
00000380: 54ca 84bc 390a 303f 0178 8e3f c90e b73f
00000390: 0b68 d03f caa8 e53f a0a9 f93f f924 0540
000003a0: d33b 0e40 5f1d 1540 cf0e 1a40 4874 1f40
000003b0: e782 2640 54c7 2840 fff4 2d40 fe95 3140
000003c0: 6a60 8e3c 8aaf 343f 6b70 8b3f 541c b23f
000003d0: abe4 cb3f 67d7 e43f 3083 f63f e8ad 0540
000003e0: f7b4 0b40 03bc 1240 584d 1840 de9b 1c40
000003f0: c5e5 2240 a738 2540 5e02 2a40 973e 3040

mamba.D f4 [128]
1.052474 1.0860071 1.0499375 1.0717114 1.0936064 1.024895 0.9629594 0.97854686
1.134722 1.1066965 1.0670048 1.0970169 1.0932993 1.1131662 1.0871389 1.0609294
1.0629085 0.9790328 1.0267255 1.0860606 1.1529423 1.0397638 1.0988216 1.0701278
0.98147655 1.1347657 1.1077645 1.1105683 1.0066013 1.0857401 1.0353001 1.0666822
1.0528115 1.0533361 1.0964019 0.9844142 0.9973895 1.0639616 1.0220051 0.93577886
1.093537 1.12688 1.1936992 1.0958639 1.1070628 1.0555385 1.0485843 1.0106494
1.0366632 1.0446203 1.1429007 1.0897653 1.0966364 1.0990298 1.034579 1.0638714
1.0369396 0.9903774 1.1227441 1.0484172 1.1083298 1.0337397 0.8376166 1.0437295
1.0122654 1.0707945 1.0780317 1.1405449 1.0939537 1.1020987 1.0363408 1.0375413
1.0153301 0.9606473 1.1238695 1.0225573 1.1129923 1.0142916 1.0023953 1.0311018
1.0773867 1.0143492 1.0744555 1.1014167 1.0272583 1.0199758 1.0565546 1.0987407
0.9885249 1.109279 1.0488878 1.0433254 1.0303867 1.0112592 1.0685831 0.9277162
0.9349449 1.044436 1.0653012 1.0939403 1.0945296 1.0802548 1.0866717 1.1061205
1.0634726 1.1326009 1.1391296 1.0251248 1.0845327 1.0953928 1.0673512 1.0838687
1.1215919 0.8609999 1.016468 1.0508991 1.0570583 1.0067519 1.170727 1.003063
1.0980675 1.1158392 1.0894364 1.107443 1.1077585 1.0738118 1.0786163 1.0664504
00000000: 78b7 863f 4802 8b3f 5a64 863f d72d 893f
00000010: 4bfb 8b3f c22f 833f 8284 763f 0c82 7a3f
00000020: 923e 913f 3ba8 8d3f 9d93 883f 0d6b 8c3f
00000030: 3bf1 8b3f 3b7c 8e3f 5e27 8b3f 89cc 873f
00000040: 630d 883f e5a1 7a3f be6b 833f 0904 8b3f
00000050: 9d93 933f fb16 853f 30a6 8c3f f3f9 883f
00000060: 0c42 7b3f 0140 913f 3acb 8d3f 1a27 8e3f
00000070: 50d8 803f 88f9 8a3f b784 843f 0b89 883f
00000080: 87c2 863f b8d3 863f e656 8c3f 9202 7c3f
00000090: eb54 7f3f e52f 883f 10d1 823f 348f 6f3f
000000a0: 05f9 8b3f 9b3d 903f 23cb 983f 4545 8c3f
000000b0: 3cb4 8d3f e31b 873f 0338 863f f65c 813f
000000c0: 61b1 843f 1eb6 853f 924a 923f 6e7d 8b3f
000000d0: 955e 8c3f 02ad 8c3f 166d 843f f02c 883f
000000e0: 70ba 843f 6089 7d3f 14b6 8f3f 8932 863f
000000f0: c0dd 8d3f 9551 843f 0b6e 563f ee98 853f
00000100: ea91 813f cb0f 893f f1fc 893f 60fd 913f
00000110: ad06 8c3f 9211 8d3f d1a6 843f 27ce 843f
00000120: 56f6 813f fbec 753f f5da 8f3f 28e3 823f
00000130: 8876 8e3f 4fd4 813f 7d4e 803f 25fb 833f
00000140: cfe7 893f 32d6 813f c287 893f 39fb 8c3f
00000150: 337d 833f 918e 823f 2e3d 873f 89a3 8c3f
00000160: f80f 7d3f dbfc 8d3f f541 863f b08b 853f
00000170: b6e3 833f f170 813f 55c7 883f cf7e 6d3f
00000180: 8d58 6f3f 14b0 853f ca5b 883f 3c06 8c3f
00000190: 8c19 8c3f ca45 8a3f 0f18 8b3f 5b95 8d3f
000001a0: df1f 883f 11f9 903f 00cf 913f 4a37 833f
000001b0: f8d1 8a3f d535 8c3f f79e 883f 36bc 8a3f
000001c0: 5390 8f3f 7d6a 5c3f a01b 823f dd83 863f
000001d0: b04d 873f 3fdd 803f 62da 953f 5e64 803f
000001e0: 7a8d 8c3f d2d3 8e3f a772 8b3f b1c0 8d3f
000001f0: 08cb 8d3f aa72 893f 1910 8a3f 7281 883f

mamba.in_proj.weight f4 [256, 64]
-0.094472945 -0.13892132 0.025192281 0.018311776 -0.07965361 0.21050352 0.038899798 0.16443537
0.20200486 0.03092748 -0.010362422 0.10601377 0.015148361 -0.034378733 -0.033657536 0.051437587
0.10140438 -0.047479346 -0.052632406 0.0054096356 0.11336811 0.1900461 -0.032531746 -0.07042454
0.03467071 0.22708832 0.18029451 -0.061480463 0.07716522 0.18809566 0.11865517 0.11495398
-0.008516158 0.056713235 0.121228166 -0.03176115 -0.026900502 0.08942546 -0.20020081 -0.04178548
-0.13355231 -0.053229596 0.07068281 0.04399381 0.0016500623 0.091913275 -0.105998576 -0.002810579
0.054392077 -0.03287568 -0.06632562 0.092421114 0.12675782 -0.19727932 0.034796108 0.132943
0.049815737 -0.14236775 0.20998159 0.0019712874 0.10555501 -0.08346818 -0.0076877386 -0.06441866
0.021869093 -0.03808108 -0.03315509 0.07475536 0.10667265 -0.03223237 0.058591492 -0.011771836
-0.10955325 0.10965285 -0.055827104 0.020979678 -0.09811157 -0.03242196 0.14858226 0.016163709
0.16376989 -0.07135352 0.060911283 0.14079094 0.16736172 -0.080752894 0.19206993 -0.14923799
-0.00023389186 0.024811894 0.009641588 0.010286086 0.082023114 -0.011408688 -0.085459985 0.19659942
-0.052051444 -0.009052905 -0.11788903 0.012793649 0.04254668 -0.062841006 -0.08449873 0.017438143
-0.17402576 -0.15235431 -0.12878413 0.14173122 0.018119117 -0.017792838 0.028441845 0.0073139104
0.02483303 -0.028558806 -0.042411365 -0.13281034 0.0369264 -0.038766015 0.07348098 0.08817765
-0.05349793 0.07362182 0.1323532 0.056389328 0.07659587 0.1689953 0.07584414 0.04790764
0.14720404 -0.026026113 -0.096154526 -0.05512762 -0.061450787 -0.32530114 -0.0789918 0.05371939
-0.2474712 -0.16247305 -0.052986506 -0.02138819 -0.1762457 0.080307916 0.14520085 0.050943203
-0.08175289 0.07802272 0.039181657 -0.23433588 0.0013680455 -0.11717155 -0.050197035 -0.25082767
-0.17976704 -0.0058241393 0.03612907 -0.027293524 0.03694051 0.115093246 -0.0195993 -0.09378156
0.20411523 0.17069249 -0.16753997 0.05479366 0.10373452 0.06520452 0.18171188 -0.16119173
0.0011733767 -0.117727086 -0.19569528 -0.014249229 -0.13803527 -0.07415429 -0.059673704 0.119962886
-0.09483163 -0.0052490644 -0.123382345 -0.100282006 0.07005427 0.08674898 0.035777327 0.03030032
0.16731255 -0.00068924663 -0.13373743 0.033139057 0.061342753 0.011815155 0.14078513 0.19500506
0.027039599 0.0826324 -0.021830931 0.08320334 0.097924285 0.05609429 -0.03385765 0.07126708
-0.09692115 0.05132587 0.06817298 -0.01837163 -0.12278488 0.024107736 0.11471292 0.077455975
0.0034097421 -0.025592461 -0.07075767 0.057727385 -0.02734495 -0.17894274 0.056438413 -0.088286445
-0.0132702645 0.12772553 -0.08087311 -0.05380355 -0.013934766 -0.07618122 0.09293503 0.14448988
-0.044144146 -0.0066433195 -0.03586258 -0.05187357 0.022836113 0.058583364 0.018084398 0.078630485
-0.032701176 -0.143951 -0.015811395 0.03297109 0.0828876 0.0114972945 0.013600635 -0.11018646
-0.1650782 0.12720063 -0.014303639 -0.102235824 0.053058885 0.12237368 0.062463388 -0.09605922
-0.12082167 0.12776919 0.1324139 -0.056605626 -0.057706155 -0.08225086 0.11065338 -0.003158866
00000000: 087b c1bd 6441 0ebe 0b60 ce3c 9402 963c
00000010: 6f21 a3bd 3c8e 573e 6555 1f3d bf61 283e
00000020: 5dda 4e3e a05b fd3c 26c7 29bc bf1d d93d
00000030: d530 783c b7d0 0cbd 7cdc 09bd 38b0 523d
00000040: 19ad cf3d b479 42bd 1495 57bd 5043 b13b
00000050: 8a2d e83d 729b 423e 0240 05bd be3a 90bd
00000060: e002 0e3d d789 683e 209f 383e f0d2 7bbd
00000070: cd08 9e3d 269c 403e 7b01 f33d fe6c eb3d
00000080: 5b87 0bbc 234c 683d 7946 f83d fb17 02bd
00000090: 715e dcbc b224 b73d 7101 4dbe 4027 2bbd
000000a0: f0c1 08be 4707 5abd 26c2 903d da32 343d
000000b0: e746 d83a 073d bc3d c815 d9bd b131 38bb
000000c0: 3aca 5e3d a6a8 06bd bad5 87bd 4847 bd3d
000000d0: cdcc 013e 9703 4abe 5d86 0e3d 3622 083e
000000e0: 960b 4c3d dac8 11be 6a05 573e b730 013b
000000f0: 3a2d d83d 5df1 aabd 6de9 fbbb eeed 83bd
00000100: d026 b33c e8fa 1bbd a2cd 07bd 5719 993d
00000110: 3177 da3d 1706 04bd a2fd 6f3d a9de 40bc
00000120: 745d e0bd ac91 e03d f6aa 64bd 93dd ab3c
00000130: b8ee c8bd e4cc 04bd f325 183e c169 843c
00000140: 4bb3 273e cb21 92bd 1c7e 793d 802b 103e
00000150: df60 2b3e c661 a5bd fbad 443e d8d1 18be
00000160: de40 75b9 5042 cb3c c0f7 1d3c f986 283c
00000170: bcfb a73d 81eb 3abc a505 afbd 5c51 493e
00000180: e533 55bd a352 14bc ce6f f1bd 749c 513c
00000190: 6d45 2e3d c9b2 80bd ac0d adbd 70da 8e3c
000001a0: cf33 32be c502 1cbe fddf 03be fd21 113e
000001b0: 8b6e 943c 49c2 91bc dffe e83c 87a9 ef3b
000001c0: a36e cb3c 28f4 e9bc 8ab7 2dbd 6fff 07be
000001d0: 2340 173d 1dc9 1ebd 327d 963d 7c96 b43d
000001e0: a520 5bbd 09c7 963d 9987 073e 7ff8 663d
000001f0: 4cde 9c3d 1b0d 2d3e 2c54 9b3d cd3a 443d
00000200: a8bc 163e b734 d5bc aaec c4bd 80cd 61bd
00000210: d2b3 7bbd df8d a6be 74c6 a1bd dd08 5c3d
00000220: 1769 7dbe 565f 26be 6108 59bd 4936 afbc
00000230: c179 34be 7a78 a43d 88af 143e d2a9 503d
00000240: 0f6e a7bd 60ca 9f3d f27c 203d bff5 6fbe
00000250: fd4f b33a a3f7 efbd 689b 4dbd 7c6c 80be
00000260: da14 38be 6cd8 bebb 13fc 133d ab96 dfbc
00000270: ef4e 173d 02b6 eb3d b68e a0bc 8c10 c0bd
00000280: 9503 513e 03ca 2e3e 998f 2bbe 516f 603d
00000290: c472 d43d f389 853d ae12 3a3e 720f 25be
000002a0: fdcb 993a e61a f1bd 5864 48be 9975 69bc
000002b0: 1e59 0dbe 34de 97bd 6a6c 74bd 1aaf f53d
000002c0: 1637 c2bd 5800 acbb e2af fcbd a760 cdbd
000002d0: 9d78 8f3d 73a9 b13d 3f8b 123d 6038 f83c
000002e0: fb53 2b3e 8fae 34ba 77f2 08be d2bc 073d
000002f0: 8a42 7b3d 5a94 413c fa29 103e 68af 473e
00000300: 2682 dd3c 2d3b a93d c8d6 b2bc 8366 aa3d
00000310: 878c c83d 20c3 653d 52ae 0abd 7af4 913d
00000320: 997e c6bd 133b 523d 469e 8b3d 1a80 96bc
00000330: a476 fbbd 967d c53c 9bee ea3d 3da1 9e3d
00000340: fb75 5f3b 48a7 d1bc 66e9 90bd 8d73 6c3d
00000350: 8402 e0bc c43c 37be f72b 673d 86cf b4bd
00000360: 866b 59bc 7bca 023e cda0 a5bd 1c61 5cbd
00000370: a54e 64bc e604 9cbd b954 be3d 28f5 133e
00000380: 7ed0 34bd 34b0 d9bb a4e4 12bd 6179 54bd
00000390: cd12 bb3c 1cf5 6f3d bb25 943c 0509 a13d
000003a0: abf1 05bd e467 13be e686 81bc b20c 073d
000003b0: f9c0 a93d 265f 3c3c 33d5 5e3c 70a9 e1bd
000003c0: 420a 29be e240 023e cf59 6abc 0461 d1bd
000003d0: 4654 593d 0d9f fa3d 9cd9 7f3d b2ba c4bd
000003e0: 5a71 f7bd edd5 023e 8297 073e 4ddb 67bd
000003f0: 4a5d 6cbd 2473 a8bd 3d9e e23d fa04 4fbb

mamba.conv1d.weight f4 [128, 1, 4]
0.5232532 0.41643128 0.038786463 -0.45898932 -0.49684343 0.045796048 -0.13820991 0.08474383
0.45292458 -0.34209988 -0.13604784 0.10062816 0.44558987 0.24484065 0.43242604 -0.40152854
0.06358388 0.4990298 -0.3078125 -0.07263702 0.14595145 0.50879496 0.47202188 0.42565084
0.19907871 0.02078919 -0.0773692 0.32088038 0.0053634746 0.08216403 0.4529507 -0.1150588
-0.51956534 0.32933086 0.010196061 0.24654084 0.084575176 0.36635086 0.31125766 -0.28758782
0.6426475 0.036771927 -0.024330534 0.4014658 0.05753436 -0.18281269 -0.09153348 -0.3273933
-0.14507446 -0.06905207 0.09500416 0.1475633 0.560878 0.072526865 -0.0036314672 -0.35594404
0.28912002 0.20989962 0.36640808 0.11858196 0.45748258 0.1796939 -0.10899089 0.52804995
0.026788637 -0.21797314 0.2759199 0.43157676 -0.22212046 -0.28619534 0.47240704 -0.16246752
-0.47332618 0.42336333 -0.43904752 0.1611718 -0.3346703 0.39040196 0.06815188 -0.15117152
-0.73244095 -0.49287346 -0.41371474 0.39077955 0.027932711 0.095740266 0.09095688 -0.3112333
-0.45074528 -0.18502459 0.49429333 -0.0918123 -0.12181182 0.03440604 0.09532428 -0.25846922
0.42973927 0.44895235 0.12796886 -0.28064355 0.55982405 0.43097502 -0.3834868 -0.30767193
0.5658684 0.46013978 0.46285582 -0.26999187 -0.5079781 0.14382236 0.42236322 -0.3580393
-0.37066817 0.032807525 0.4242596 0.03267419 -0.28202215 0.059964426 0.4952119 -0.31586477
-0.34068072 -0.094910726 0.24874163 -0.1779687 -0.5178886 -0.50890386 0.08201769 0.18999146
-0.3833266 0.02396754 -0.4194144 0.48496276 -0.21973208 0.40755716 0.32518676 0.3802648
0.5081285 0.35360667 0.31457382 -0.42994744 -0.32492527 -0.4253583 0.3670315 -0.2367813
-0.2786976 -0.13510726 -0.4507375 0.13978289 -0.38638768 -0.3796049 -0.2563034 -0.054871924
-0.008317478 0.025693364 0.43641695 0.4713798 0.24155244 -0.27120137 -0.3764291 -0.2924511
0.3501557 0.33998922 0.024658056 -0.14709313 -0.46905115 -0.007878936 0.015839841 0.15762164
0.73123604 -0.16598454 -0.102329604 0.30141485 -0.35694045 -0.341742 0.2954641 0.05133456
-0.17391837 -0.11541005 0.19602288 -0.049422715 -0.15842845 0.08317062 -0.23184751 0.28833368
0.22765602 -0.34383813 -0.058588274 -0.31364942 -0.34559658 -0.47995153 -0.46772775 0.021516435
-0.4363669 0.3737178 -0.509116 0.42677906 -0.4789583 -0.19389525 0.1278136 -0.14782241
0.47172597 0.0070561166 -0.38435674 0.14396696 0.16524665 0.30803248 0.24077539 -0.3746392
-0.42484543 0.2082783 -0.10365291 0.10927573 -0.12160959 -0.2123586 -0.31643 0.44414485
-0.330554 0.349452 0.14853863 -0.22527231 -0.034268774 0.22536941 -0.48377594 -0.17154206
0.06350438 0.05501251 0.3855278 -0.08473394 0.22464946 0.07583296 -0.047250673 0.37716952
-0.111174226 -0.11193856 0.31643066 0.032492228 -0.54830813 0.44167793 0.4846281 -0.27569592
0.025176495 0.47792485 0.06902629 -0.20740153 -0.12714565 0.17213072 -0.09738396 -0.3386365
-0.3366004 -0.10877155 -0.09454943 -0.032736532 -0.3121406 0.43631804 0.43555847 -0.023799632
00000000: ecf3 053f 7b36 d53e 8ede 1e3d a600 ebbe
00000010: 4362 febe a394 3b3d e686 0dbe 2c8e ad3d
00000020: bbe5 e73e b727 afbe 2050 0bbe 2316 ce3d
00000030: 5b24 e43e 82b7 7a3e f266 dd3e 2695 cdbe
00000040: 4438 823d d580 ff3e 9a99 9dbe b8c2 94bd
00000050: 4c74 153e 6340 023f daac f13e e8ee d93e
00000060: 4adb 4b3e 174e aa3c be73 9ebd 6f4a a43e
00000070: 16c0 af3b 9d45 a83d 27e9 e73e f3a3 ebbd
00000080: 3c02 05bf 0e9e a83e 610d 273c 3475 7c3e
00000090: c035 ad3d 5792 bb3e 2a5d 9f3e b63e 93be
000000a0: 8c84 243f 299e 163d d450 c7bc ed8c cd3e
000000b0: 26a9 6b3d 4033 3bbe e875 bbbd 18a0 a7be
000000c0: 668e 14be 2c6b 8dbd 8b91 c23d d51a 173e
000000d0: b395 0f3f f788 943d e9fd 6dbb 4c3e b6be
000000e0: 8a07 943e edef 563e d799 bb3e 19db f23d
000000f0: 283b ea3e ad01 383e 9e36 dfbd 482e 073f
00000100: d873 db3c 5a34 5fbe 6045 8d3e a1f7 dc3e
00000110: 8c73 63be 3288 92be 56df f13e e35d 26be
00000120: cf57 f2be 14c3 d83e d6ca e0be 380a 253e
00000130: e859 abbe c4e2 c73e 3693 8b3d b5cc 1abe
00000140: 4081 3bbf e959 fcbe 6bd2 d3be 4214 c83e
00000150: 24d3 e43c 7913 c43d 9a47 ba3d f959 9fbe
00000160: 16c8 e6be 1677 3dbe 0414 fd3e 1608 bcbd
00000170: 7a78 f9bd 59ed 0c3d 6039 c33d 1456 84be
00000180: c906 dc3e 15dd e53e 450a 033e 83b0 8fbe
00000190: a150 0f3f c2a8 dc3e 6258 c4be 2d87 9dbe
000001a0: c0dc 103f 7197 eb3e 70fb ec3e 603c 8abe
000001b0: da0a 02bf 2b46 133e fe3f d83e ed50 b7be
000001c0: 38c8 bdbe 2f61 063d 8e38 d93e 5fd5 053d
000001d0: 3565 90be 429d 753d 6a8c fd3e 07b9 a1be
000001e0: b46d aebe 8e60 c2bd 20b6 7e3e 6d3d 36be
000001f0: 5994 04bf 8647 02bf e4f8 a73d 1f8d 423e
00000200: 6243 c4be 9357 c43c 7cbd d6be 0a4d f83e
00000210: 7201 61be 55ab d03e e17e a63e 11b2 c23e
00000220: b614 023f ef0b b53e d20f a13e 1222 dcbe
00000230: 9b5c a6be 90c8 d9be 8eeb bb3e cc76 72be
00000240: 74b1 8ebe 8f59 0abe 11c7 e6be 3f23 0f3e
00000250: 9bd4 c5be 935b c2be 333a 83be 62c1 60bd
00000260: 0846 08bc e47a d23c 0b72 df3e b158 f13e
00000270: 8659 773e e8da 8abe 51bb c0be 27bc 95be
00000280: 9c47 b33e 1113 ae3e b1ff c93c 959f 16be
00000290: 7927 f0be a716 01bc 8ec2 813c 9167 213e
000002a0: 4932 3b3f daf7 29be 2f92 d1bd 0c53 9a3e
000002b0: e6c0 b6be cff8 aebe 1247 973e 3044 523d
000002c0: a817 32be 1b5c ecbd 39ba 483e 796f 4abd
000002d0: 113b 22be 5c55 aa3d 6f69 6dbe 79a0 933e
000002e0: a91e 693e 8d0b b0be 42fa 6fbd a896 a0be
000002f0: 09f2 b0be 35bc f5be 037a efbe 3c43 b03c
00000300: 7b6b dfbe f157 bf3e 6d55 02bf c982 da3e
00000310: 063a f5be 7a8c 46be 91e1 023e c25e 17be
00000320: 1186 f13e ff36 e73b 68ca c4be 136c 133e
00000330: 6b36 293e 6fb6 9d3e d38d 763e b6d0 bfbe
00000340: 5785 d9be e846 553e fa47 d4bd f4cb df3d
00000350: 730e f9bd 8874 59be 1d03 a2be f466 e33e
00000360: 603e a9be 5feb b23e 831a 183e c9ad 66be
00000370: 6a5d 0cbd 3dc7 663e 7bb1 f7be b9a8 2fbe
00000380: 960e 823d cc54 613d e663 c53e fd88 adbd
00000390: 820a 663e 504e 9b3d ec89 41bd 5d1c c13e
000003a0: 50af e3bd 0b40 e5bd 3303 a23e 9216 053d
000003b0: ec5d 0cbf 9c23 e23e 2d21 f83e 0428 8dbe
000003c0: f03e ce3c 91b2 f43e a85d 8d3d 1161 54be
000003d0: 7832 02be 0943 303e 3e71 c7bd c361 adbe
000003e0: e356 acbe 9ec3 debd 22a3 c1bd be16 06bd
000003f0: e5d0 9fbe 1465 df3e 8501 df3e 72f7 c2bc

mamba.conv1d.bias f4 [128]
-0.3381262 0.3399574 0.5196507 -0.38726595 0.26878956 -0.35593504 0.108572006 0.42893183
0.2428949 -0.3030632 -0.086894155 0.4051654 0.532568 -0.17459673 0.20697115 -0.16529481
-0.491467 0.0050953934 -0.12404088 -0.086265616 -0.3292339 0.38093162 0.45112637 -0.45999384
0.13859117 0.54695785 -0.27019534 -0.4818375 -0.16968058 0.3076825 0.22445615 -0.45473617
-0.10648575 -0.2193536 -0.23156372 -0.024885736 -0.49278244 -0.5358635 0.41412312 0.055546653
0.24734737 -0.19410814 -0.08410633 -0.24569573 -0.17863105 -0.3075151 0.42928356 -0.03975665
-0.09645319 0.16163138 0.17792521 -0.14394368 -0.32757086 0.49952787 -0.25560164 -0.15030302
-0.5204098 -0.4928244 0.45814887 -0.31386968 0.18486989 -0.30539122 0.43373886 -0.47086582
-0.033222094 -0.08738279 0.31397432 -0.37584952 0.42774853 0.37002876 0.33148524 0.11744034
0.26314107 -0.24898033 0.52358663 0.43629688 -0.48772836 0.45530984 -0.06293671 0.13779356
0.49318433 -0.06478584 0.3214036 0.2713909 0.24734233 -0.12334474 0.19592644 -0.5583745
-0.28178024 0.44966617 0.45119336 0.51473635 -0.12764323 -0.01758558 0.4368481 -0.1213945
-0.42052194 0.26308876 -0.47374645 0.16695996 0.52015406 0.4160875 0.15766722 0.52847433
0.4040702 -0.34296167 0.41063693 -0.18854076 0.33563736 -0.42975542 0.10580938 -0.26835433
0.32396284 -0.021047564 0.26660448 0.4902941 0.09939188 0.19226348 -0.22523326 0.063964665
-0.47905532 0.42975846 -0.29958937 0.5198292 0.44709304 -0.38384643 0.32951128 0.5197265
00000000: e11e adbe e50e ae3e d407 053f b947 c6be
00000010: c99e 893e 1e3d b6be 005b de3d f49c db3e
00000020: 71b9 783e 1a2b 9bbe 90f5 b1bd d771 cf3e
00000030: 6056 083f 7cc9 32be 3ff0 533e 0b43 29be
00000040: 90a1 fbbe 42f7 a63b 2509 febd 07ac b0bd
00000050: 5991 a8be 7809 c33e 09fa e63e 5084 ebbe
00000060: d8ea 0d3e 6e05 0c3f 0b57 8abe 68b3 f6be
00000070: bfc0 2dbe 9088 9d3e d5d7 653e 2ed3 e8be
00000080: 3315 dabd 3b9e 60be 0a1f 6dbe 2cdd cbbc
00000090: fb4d fcbe 5a2e 09bf f207 d43e e384 633d
000000a0: a148 7d3e 49c4 46be f13f acbd a997 7bbe
000000b0: 0feb 36be 9f72 9dbe 0ecb db3e ded7 22bd
000000c0: 4089 c5bd b282 253e 0732 363e f965 13be
000000d0: 5eb7 a7be 1ec2 ff3e 38de 82be 09e9 19be
000000e0: 9439 05bf 7b53 fcbe 7d92 ea3e 87b3 a0be
000000f0: 884e 3d3e 3d5c 9cbe 0513 de3e 5315 f1be
00000100: e413 08bd c0f5 b2bd 3ec1 a03e 596f c0be
00000110: db01 db3e 6974 bd3e 6fb8 a93e 9084 f03d
00000120: 6dba 863e b3f4 7ebe c609 063f 4e62 df3e
00000130: 88b7 f9be 5f1e e93e f6e4 80bd c119 0d3e
00000140: a882 fc3e 70ae 84bd 038f a43e bff3 8a3e
00000150: 4f47 7d3e 2b9c fcbd f1a0 483e a2f1 0ebf
00000160: 8045 90be a53a e63e d102 e73e c3c5 033f
00000170: e8b4 02be a20f 90bc 8eaa df3e ae9d f8bd
00000180: a74e d7be 92b3 863e e58e f2be 8df7 2a3e
00000190: d128 053f 6c09 d53e 8473 213e 184a 073f
000001a0: 4ae2 ce3e ac98 afbe 013f d23e d410 41be
000001b0: a9d8 ab3e e708 dcbe 97b2 d83d bd65 89be
000001c0: 75de a53e f16b acbc 6280 883e d407 fb3e
000001d0: f88d cb3d b8e0 443e 8ca3 66be e8ff 823d
000001e0: bd46 f5be 4d09 dc3e c763 99be 8713 053f
000001f0: 61e9 e43e 8587 c4be b4b5 a83e cc0c 053f
