best_mamba_model.pth (torch, 263788 bytes, 19 tensors)

encoder.0.weight f4 [32, 1, 3, 3]
0.26915023 -0.38488716 -0.26404116 0.0898145 0.054420713 0.03314825 -0.044459663 0.002338491
-0.03129786 0.32786158 0.12152221 -0.08716001 0.42295676 -0.3068513 -0.32284367 -0.11418431
-0.32338226 0.28595397 -0.3231279 0.1319957 -0.26302937 -0.22667873 -0.24535513 -0.3054754
0.18384854 0.14527462 -0.2484626 -0.25677675 -0.09396297 -0.19409306 0.24125992 -0.2975305
0.151011 -0.2203688 -0.18334588 0.009598223 -0.20623675 -0.18227293 0.23287112 0.22854035
0.37227634 0.016402323 0.062213723 -0.12838273 -0.12748182 0.2527667 -0.22733505 -0.18572682
-0.042909533 0.29599997 -0.24880867 -0.15963916 0.07524317 -0.022528822 -0.019829936 -0.033046737
0.22104284 0.095174246 0.14566801 -0.037624177 0.21753763 0.060598314 -0.23448427 -0.09651206
0.24058503 0.1918891 -0.23631066 0.035132997 0.22274895 -0.28309435 -0.11225531 0.17212527
-0.31816137 0.16673599 -0.1730635 0.24162315 0.24057272 0.13762541 -0.23895909 0.25036368
0.1770053 -0.26951516 -0.2657524 0.112148054 0.1531148 -0.10460574 -0.22955853 0.024605064
0.3372875 -0.024376882 0.08280353 0.04114908 -0.24993338 -0.2243229 -0.24752574 0.3078761
0.2687206 0.02492392 -0.19782007 0.27060646 0.039839018 -0.43409312 0.13077497 0.2187462
-0.33983645 -0.24391027 0.15048027 0.20235677 0.015777076 -0.39515215 -0.08406101 0.3126323
-0.20566028 -0.058011968 -0.10257493 0.10263625 -0.2516083 -0.041588493 -0.2755628 0.21041949
0.18798201 -0.07134455 -0.19254942 0.20954591 0.23575233 -0.28031883 -0.06149468 -0.14911817
-0.31665888 -0.043027576 -0.27302232 -0.17644477 -0.21177204 0.014489519 -0.033858158 0.14888906
0.042695496 0.2523867 -0.22500125 -0.18181898 0.28317013 -0.2783358 -0.3601681 0.28605154
0.21111242 0.14275067 0.056521624 -0.2942355 0.3173601 0.16401416 0.021054676 -0.13984936
0.1298063 -0.12774791 -0.31670842 0.2771894 -0.11161918 0.13993329 -0.28191522 0.20721392
0.0009858728 -0.027839974 -0.33582187 -0.28446823 -0.035248064 0.18269752 0.060790267 0.10346891
0.4838716 0.12723553 -0.28705248 0.33467266 0.31096232 0.017355055 0.21568468 -0.058468793
0.1741974 -0.071631 0.23302251 -0.06279802 0.3185097 -0.20937675 0.1466165 0.23004559
0.3698005 0.03217961 -0.10376878 -0.2582586 -0.18901156 0.17202164 0.09449094 -0.12639077
-0.06182391 -0.16089159 -0.2797379 0.19584286 0.31752887 0.10589528 -0.09891275 0.08444356
-0.17277393 -0.16970272 -0.14573997 0.31769493 -0.12596057 -0.1709383 -0.172795 0.055245005
0.063822486 0.16988239 0.18392637 0.19093587 0.026133424 -0.26704755 -0.253628 -0.20501406
-0.06545301 0.099292316 -0.28436297 0.1866103 -0.11142707 -0.23066051 0.26245174 -0.22411236
-0.10372642 0.06403538 0.19350097 -0.10845322 -0.21210846 0.124834396 0.22941579 -0.10490958
0.10585495 -0.2910852 0.2740184 -0.32023892 -0.35083112 -0.12943332 0.37553525 0.17107531
-0.18527845 0.18775535 -0.21023713 -0.0041512 0.2508918 -0.08396749 0.16524825 0.06369509
0.06663666 0.3168312 -0.0628844 0.030867567 -0.16225755 0.37532598 -0.19455487 -0.14472139
00000000: 0fce 893e ee0f c5be 6730 87be aaf0 b73d
00000010: 41e8 5e3d 76c6 073d 561b 36bd 5e41 193b
00000020: 2f32 00bd 79dd a73e a3e0 f83d f380 b2bd
00000030: ca8d d83e 9d1b 9dbe c44b a5be 77d9 e9bd
00000040: 5c92 a5be 8f68 923e 0571 a5be e129 073e
00000050: c9ab 86be 781e 68be 603e 7bbe 4667 9cbe
00000060: cb42 3c3e dfc2 143e fb6c 7ebe 3e78 83be
00000070: a86f c0bd 55c0 46be d70c 773e eb55 98be
00000080: a1a2 1a3e 5ca8 61be 06bf 3bbe dd41 1d3c
00000090: ba2f 53be c1a5 3abe c475 6e3e 7b06 6a3e
000000a0: 019b be3e 2a5e 863c d1d3 7e3d c376 03be
000000b0: 988a 02be a36a 813e 85ca 68be 2c2f 3ebe
000000c0: e8c1 2fbd 4f8d 973e b3c7 7ebe 7378 23be
000000d0: 1719 9a3d 5d8e b8bc 6472 a2bc 045c 07bd
000000e0: 0e59 623e b7ea c23d ff29 153e cf1b 1abd
000000f0: 2fc2 5e3e f035 783d a51c 70be 1da8 c5bd
00000100: ec5b 763e 947e 443e 6cfb 71be 9ee7 0f3d
00000110: 4d18 643e bef1 90be 1de6 e5bd 9b41 303e
00000120: 0ce6 a2be d7bc 2a3e 8f37 31be 0f6c 773e
00000130: b258 763e aded 0c3e b1b1 74be ab2f 803e
00000140: e140 353e e4fd 89be b310 88be e1ad e53d
00000150: 20ca 1c3e 893b d6bd 6411 6bbe 8f90 c93c
00000160: f2b0 ac3e 07b2 c7bc e694 a93d f08b 283d
00000170: 89ee 7fbe e7b4 65be 6377 7dbe f0a1 9d3e
00000180: bf95 893e 402d cc3c 5891 4abe ee8c 8a3e
00000190: 3d2e 233d 7441 debe e0e9 053e 01ff 5f3e
000001a0: 0bff adbe 9dc3 79be 8017 1a3e 9d36 4f3e
000001b0: ed3e 813c 6251 cabe 2e28 acbd 5711 a03e
000001c0: 9c98 52be f59d 6dbd ce12 d2bd f432 d23d
000001d0: ced2 80be b258 2abd 9116 8dbe 3578 573e
000001e0: 5b7e 403e 171d 92bd ad2b 45be 3493 563e
000001f0: 0f69 713e f385 8fbe d8e1 7bbd 6fb2 18be
00000200: 1d21 a2be af3d 30bd 95c9 8bbe f0ad 34be
00000210: c5da 58be 7365 6d3c daae 0abd 6076 183e
00000220: 79e1 2e3d d438 813e ba66 66be c12e 3abe
00000230: adfb 903e 0882 8ebe f467 b8be 5975 923e
00000240: db2d 583e 3b2d 123e 3883 673d 09a6 96be
00000250: 067d a23e 54f3 273e db7a ac3c ac34 0fbe
00000260: f1eb 043e 59d0 02be 9b27 a2be c5eb 8d3e
00000270: 9998 e4bd ac4a 0f3e 3157 90be e32f 543e
00000280: 6738 813a a810 e4bc d8f0 abbe d2a5 91be
00000290: 4660 10bd 0f15 3b3e 37ff 783d 82e7 d33d
000002a0: 05be f73e 084a 023e 8bf8 92be 375a ab3e
000002b0: 7436 9f3e 302c 8e3c 72dc 5c3e f97c 6fbd
000002c0: ce60 323e 46b3 92bd 749d 6e3e 409c 80bd
000002d0: b413 a33e dc66 56be a322 163e 1291 6b3e
000002e0: 7e56 bd3e c4ce 033d ba84 d4bd 793a 84be
000002f0: 3f8c 41be 7126 303e 7784 c13d 956c 01be
00000300: 113b 7dbd c4c0 24be ce39 8fbe 088b 483e
00000310: 2593 a23e a0df d83d c592 cabd bff0 ac3d
00000320: a6eb 30be 8dc6 2dbe dc3c 15be e9a8 a23e
00000330: cffb 00be 730a 2fbe 2cf1 30be 9648 623d
00000340: 5db5 823d a6f5 2d3e 3257 3c3e b184 433e
00000350: c315 d63c 75ba 88be 87db 81be 35ef 51be
00000360: 3a0c 86bd c559 cb3d 0698 91be c516 3f3e
00000370: e033 e4bd 4532 6cbe 1360 863e b67d 65be
00000380: 846e d4bd fb24 833d 1e25 463e b91c debd
00000390: f632 59be 2da9 ff3d f9eb 6a3e d5da d6bd
000003a0: 7bca d83d 1f09 95be 244c 8c3e 5bf6 a3be
000003b0: 23a0 b3be 2b8a 04be 2846 c03e 5e2e 2f3e
000003c0: a2b9 3dbe f042 403e 6748 57be ca06 88bb
000003d0: e474 803e 26f7 abbd d636 293e 9272 823d
000003e0: cd78 883d b337 a23e 89c9 80bd fbdd fc3c
000003f0: d826 26be ba2a c03e 6439 47be d831 14be

encoder.0.bias f4 [32]
-0.19377594 -0.07169119 -0.32089534 0.021635232 -0.19715482 -0.18479727 -0.31131047 0.02916705
-0.23968025 0.11401341 0.17270103 -0.020763228 -0.20335926 -0.023918062 0.1079635 0.0062372945
-0.29813954 0.10956442 -0.15128867 0.002318629 -0.2515407 0.10440665 -0.023160983 -0.02007332
-0.2961674 -0.030223997 -0.22077332 0.21866456 -0.1324148 -0.15477523 0.053297002 -0.028370379
00000000: 336d 46be d5d2 92bd 654c a4be 5f3c b13c
00000010: f4e2 49be 7f3b 3dbe 1664 9fbe bdef ee3c
00000020: bd6e 75be dd7f e93d 8ad8 303e a517 aabc
00000030: 693d 50be d0ef c3bc f81b dd3d 3862 cc3b
00000040: bfa5 98be 5063 e03d 6beb 1abe 24f4 173b
00000050: f1c9 80be 27d3 d53d 1abc bdbc ce70 a4bc
00000060: 41a3 97be 5198 f7bc 6712 62be 9ae9 5f3e
00000070: bf97 07be 667d 1ebe f54d 5a3d ff68 e8bc

encoder.3.weight f4 [64, 32, 3, 3]
0.041745964 0.037080795 -0.005985651 -0.044098362 0.009435896 -0.04035187 -0.051575925 0.014238628
-0.05233878 -0.061734904 0.030000517 0.046076983 -0.011684914 -0.016812302 0.047437653 0.02801308
-0.037666563 0.038157623 -0.06511282 -0.05564224 -0.04232258 -0.021009248 0.010302135 -0.012482886
0.017758131 -0.012870431 -0.016137563 -0.011098435 0.010274816 0.04094817 -0.0031141613 0.03708473
-0.007329222 -0.021256715 -0.061308187 0.021818781 -0.041233115 -0.04424072 0.012188643 -0.055865068
-0.030961107 -0.0031601347 -0.024939904 -0.009024882 -0.013481367 -0.04967782 0.046755657 0.0007834184
-0.058349904 -0.017286986 0.031215047 -0.034845416 0.031872645 0.048911136 0.02038216 0.00028266976
-0.047268562 -0.0045592533 -0.03099819 -0.048318185 -0.009585149 0.0032284006 -0.06553293 -0.022329938
0.0052919122 0.03941344 0.035459787 0.032033198 0.012187497 0.04360701 0.0048831357 0.031776737
-0.0125427125 -0.05777413 0.048502978 -0.036960684 0.02602136 -0.06246849 -0.057845715 0.021429082
0.049814086 -0.03922724 -0.008694865 -0.020694586 0.011777002 0.013325562 -0.05166329 -0.06477564
0.035958014 -0.04761245 -0.037939515 -0.057324756 0.018178035 -0.045802213 -0.072546676 -0.048276067
-0.012767679 0.012785452 0.033361837 0.021287493 -0.021756556 0.008776527 -0.0132802455 0.04281059
-0.06647143 -0.023636857 -0.05782065 0.044083714 -0.041760955 0.004579674 0.023001814 0.00913399
-0.056685112 -0.021474399 0.055935618 0.026552506 -0.023732625 0.0064062662 0.020214118 0.023822777
0.048880942 -0.019487353 -0.03026101 -0.011340398 0.0021216911 -0.049085326 -0.04129391 -0.04027618
-0.02540802 0.049204912 0.03299749 0.019925505 0.003124013 0.0047052037 -0.046554685 0.029389067
-0.018052474 0.0016781416 -0.041040927 0.035840623 -0.007981135 0.040156126 -0.05750469 0.047502004
0.0066597075 -0.026994584 0.003963729 0.023314755 -0.04335672 -0.047288753 0.039817143 0.03546307
0.008111276 0.025543757 0.014513023 -0.034950927 0.020316482 -0.037804287 -0.03443354 0.006274441
-0.021449221 0.037865862 -0.014443515 -0.0061575575 -0.06809966 0.011835327 0.04022301 0.030454176
0.040741723 -0.026182143 -0.03880388 0.03050855 0.02151786 -0.024373453 0.023698976 -0.026660815
0.005371854 -0.038646165 0.008336869 -0.03292172 0.013332035 -0.0016393494 0.04137462 -0.005988903
-0.033087995 -0.0020826969 0.044329967 -0.0062177875 0.003184936 -0.005266187 -0.023575941 -0.0022835443
-0.0074399244 -0.06472226 -0.008565701 -0.024125192 -0.03446814 0.0015783864 0.018691758 -0.014965186
-0.047134373 -6.889052e-05 -0.05637132 0.010840633 0.045278978 -0.036003284 -0.03481451 -0.009102639
-0.035820406 0.0007461798 0.008910358 0.05231204 0.0075052087 -0.006208246 0.0217627 -0.03734639
0.033734795 0.0072030863 0.0033439603 0.01060376 -0.017977292 -0.0178253 0.046802077 0.032482393
-0.03982921 0.0029067355 0.028936286 0.044442065 0.011516095 -0.0069518145 0.0060677985 -0.0038093887
-0.025999557 0.048249584 -0.018150488 0.020729873 0.028466618 0.032908622 -0.017836234 -0.039283257
-0.047458723 0.039697126 0.0042859465 -0.05544927 -0.03487925 -0.04121177 0.0037696622 0.0088543715
-0.016336642 0.032318734 -0.0011407256 -0.046456635 0.03638362 -0.01873286 -0.05743351 -0.00094152516
00000000: d1fd 2a3d 08e2 173d 4823 c4bb 7ca0 34bd
00000010: 0499 1a3c 0148 25bd 4741 53bd 2249 693c
00000020: 3061 56bd bddd 7cbd a5c3 f53c 38bb 3c3d
00000030: 1572 3fbc f4b9 89bc fc4d 423d b07b e53c
00000040: 4148 1abd 2b4b 1c3d df59 85bd 1ee9 63bd
00000050: 715a 2dbd 961b acbc 49ca 283c 0585 4cbc
00000060: 8079 913c 80de 52bc ec32 84bc 36d6 35bc
00000070: b457 283c 45b9 273d f516 4cbb 28e6 173d
00000080: f829 f0bb 9022 aebc 4b1e 7bbd 4dbd b23c
00000090: 0ee4 28bd c235 35bd e0b2 473c c5d2 64bd
000000a0: 26a2 fdbc 431a 4fbb c54e ccbc 19dd 13bc
000000b0: f4e0 5cbc f87a 4bbd dc82 3f3d 525e 4d3a
000000c0: 4f00 6fbd 709d 8dbc b3b6 ff3c 11ba 0ebd
000000d0: e48c 023d 0b57 483d 7df8 a63c 4b33 9439
000000e0: ae9c 41bd ca65 95bb ebef fdbc 4ae9 45bd
000000f0: 070b 1dbc 9393 533b 2136 86bd 46ed b6bc
00000100: c767 ad3b fd6f 213d 483e 113d 3e35 033d
00000110: 11ae 473c 449d 323d b602 a03b 5328 023d
00000120: f37f 4dbc 91a4 6cbd 0fab 463d 1664 17bd
00000130: bf2a d53c f6de 7fbd a1ef 6cbd 0b8c af3c
00000140: db09 4c3d beac 20bd e874 0ebc b187 a9bc
00000150: 54f4 403c 7553 5a3c e39c 53bd 17a9 84bd
00000160: b648 133d 4605 43bd 7766 1bbd 5dcd 6abd
00000170: 1aea 943c 1a9b 3bbd 5a93 94bd 20bd 45bd
00000180: 872f 51bc 137a 513c 6ca6 083d 1c63 ae3c
00000190: ce3a b2bc 6ccb 0f3c 6395 59bc 285a 2f3d
000001a0: 2c22 88bd 15a2 c1bc 59d5 6cbd 2091 343d
000001b0: 890d 2bbd 1711 963b 4d6e bc3c bba6 153c
000001c0: a62e 68bd 14eb afbc bf1c 653d a484 d93c
000001d0: ec6a c2bc a8eb d13b 1498 a53c fc27 c33c
000001e0: 6237 483d f1a3 9fbc f0e5 f7bc 14cd 39bc
000001f0: 120c 0b3b b20d 49bd ce23 29bd a3f8 24bd
00000200: 7b24 d0bc 178b 493d 6028 073d d03a a33c
00000210: 3ebc 4c3b 1c2e 9a3b 20b0 3ebd 57c1 f03c
00000220: c8e2 93bc 17f5 db3a 881a 28bd 9ecd 123d
00000230: 4ec3 02bc c07a 243d 0a8a 6bbd 7691 423d
00000240: ad39 da3b bf23 ddbc 2be2 813b 96fe be3c
00000250: d196 31bd dab1 41bd 4d17 233d b941 113d
00000260: 28e5 043c 2441 d13c 08c8 6d3c b428 0fbd
00000270: c06e a63c abd8 1abd 2f0a 0dbd d399 cd3b
00000280: 47b6 afbc 3c19 1b3d 7ea4 6cbc 56c5 c9bb
00000290: d677 8bbd f6e8 413c e2c0 243d 097b f93c
000002a0: cbe0 263d ef7b d6bc d1f0 1ebd 11ed f93c
000002b0: 3946 b03c d6aa c7bc 5b24 c23c c867 dabc
000002c0: 6106 b03b 714b 1ebd 5d97 083c edd8 06bd
000002d0: 9c6e 5a3c 70df d6ba 6f78 293d 8f3e c4bb
000002e0: 4787 07bd db7d 08bb 5793 353d 95be cbbb
000002f0: 5cba 503b fa8f acbb 5522 c1bc 84a7 15bb
00000300: 9cca f3bb 1b8d 84bd 2757 0cbc 32a2 c5bc
00000310: 772e 0dbd dce1 ce3a 751f 993c 8a30 75bc
00000320: f90f 41bd 5179 90b8 9de5 66bd e99c 313c
00000330: 7376 393d 2e78 13bd a999 0ebd 3c23 15bc
00000340: 6bb8 12bd 479b 433a c0fc 113c 2645 563d
00000350: 41ee f53b 8b6e cbbb b147 b23c 87f8 18bd
00000360: 7f2d 0a3d de07 ec3b 5826 5b3b 65bb 2d3c
00000370: 1d45 93bc 5d06 92bc 89b3 3f3d 420c 053d
00000380: f423 23bd ee7e 3e3b ca0b ed3c e208 363d
00000390: 01ae 3c3c 0ccc e3bb 62d4 c63b f0a6 79bb
000003a0: 06fd d4bc 5ba1 453d 55b0 94bc b2d1 a93c
000003b0: d332 e93c 31cb 063d 4b1d 92bc 7be7 20bd
000003c0: 1464 42bd 7499 223d 2071 8c3b c61e 63bd
000003d0: 8bdd 0ebd accd 28bd 700c 773b ed11 113c
000003e0: 6cd4 85bc a660 043d 6684 95ba 5049 3ebd
000003f0: fe06 153d a875 99bc 663f 6bbd afd0 76ba

encoder.3.bias f4 [64]
-0.029782528 0.0044739083 -0.054824837 0.03351938 -0.019293498 -0.03313758 -0.012618247 -0.074313685
0.03671396 0.00261562 -0.067647114 0.004786889 0.08863034 -0.08226266 0.005011396 -0.0053670206
-0.015938561 -0.01981213 -0.036040008 0.055967312 0.034373943 -0.07044513 -0.030079665 -0.08788865
-0.033364527 -0.05118719 -0.026257813 0.08516866 -0.075499944 -0.027137995 0.013926318 -0.038039286
0.038775723 0.0025931264 0.014672881 -0.06741397 -0.03514478 0.017286217 0.0022908903 -0.031141616
-0.04529599 0.06667911 -0.034296513 0.008453888 0.004694275 -0.06472767 -0.021925569 0.06469745
-0.041719895 0.054534424 0.014546017 -0.047167346 0.026007075 0.010406212 -0.0078409985 -0.06750856
0.02250832 0.030957798 -0.06148497 -0.018333081 -0.013937625 -0.041542217 -0.05168998 0.0011352154
00000000: 7dfa f3bc dd99 923b 0290 60bd 9e4b 093d
00000010: 660d 9ebc 45bb 07bd c4bc 4ebc c631 98bd
00000020: 6161 163d d26a 2b3b 928a 8abd 56db 9c3b
00000030: d383 b53d 5379 a8bd a336 a43b d5dd afbb
00000040: 9691 82bc 0c4d a2bc b09e 13bd fb3d 653d
00000050: b1cb 0c3d 8945 90bd a169 f6bc f7fe b3bd
00000060: 3ea9 08bd a9a9 51bd a01a d7bc e86c ae3d
00000070: b79f 9abd 8050 debc 362b 643c 15cf 1bbd
00000080: 4bd3 1e3d 71f1 293b 8666 703c 5610 8abd
00000090: f9f3 0fbd d39b 8d3c c322 163b b41c ffbc
000000a0: 4a88 39bd 0f8f 883d 807a 0cbd 2d82 0a3c
000000b0: 6fd2 993b f18f 84bd 409d b3bc 1980 843d
000000c0: 7be2 2abd 7d5f 5f3d 6b52 6e3c 8c32 41bd
000000d0: ca0c d53c d17e 2a3c 8877 00bc ee41 8abd
000000e0: 5e63 b83c 359b fd3c aad7 7bbd 422f 96bc
000000f0: a35a 64bc 2c28 2abd dfb8 53bd 82cb 943a

mamba_input_proj.weight f4 [64, 64]
0.03172003 -0.00053843996 -0.1480704 0.114040814 -0.1254826 0.07500865 0.049300876 -0.0794014
0.07808259 0.09552738 0.007248308 -0.033715807 0.10394946 -0.118124984 -0.15956125 -0.10064094
0.119077764 0.10731349 -0.03598303 0.06783018 -0.044978466 -0.17105867 0.016506838 0.045633875
-0.15962422 0.11418296 0.016778886 0.06346502 0.0707865 0.047365997 0.086434886 -0.015972367
-0.12463618 0.018782647 0.015763497 -0.16385847 0.11274216 -0.0934127 0.05822902 0.0059661167
-0.099156775 0.0667053 -0.039503977 0.01498034 -0.04302325 0.022826701 -0.03501189 0.07959293
-0.14009099 0.11160779 -0.06594481 -0.07784009 -0.05012429 -0.11006242 -0.10024986 -0.11313773
0.067138925 -0.103694364 -0.06898735 -0.059287246 -0.020511907 0.03375312 0.031159822 -0.11721786
0.028590884 0.07891139 -0.039979417 -0.021952538 0.08189843 -0.021780081 -0.04155516 0.07176557
-0.00016959297 -0.09854947 0.111553684 0.07679017 0.1230652 -0.0011134404 -0.104194336 -0.042907946
0.002723318 -0.09960966 -0.043921903 0.09725589 -0.038860973 -0.16841504 -0.08642571 -0.14899868
-0.13454442 0.014967087 0.048793282 0.10806018 -0.020992195 -0.08929266 -0.07175894 -0.16903788
0.04542931 0.05348603 -0.055875566 0.027003013 -0.050923184 0.0525132 0.053998157 0.09523434
0.0030173634 0.28257132 0.07785598 0.066478185 -0.18092346 0.051193807 -0.113494776 0.22194366
-0.037792914 0.11229933 -0.14508829 0.052607324 -0.010132065 -0.00032325278 -0.04977284 -0.062194683
-0.07723258 0.08630085 -0.12373763 0.112102754 0.06975629 -0.07158999 -0.029654136 0.15555279
-0.08217053 -0.06757079 0.06817881 -0.13945493 0.13019478 -0.024688508 -0.0940314 0.10672551
-0.12755464 0.009429056 0.015161197 -3.344992e-05 -0.1392881 0.07497471 0.15075257 0.1678578
-0.074167095 0.122858964 -0.09301921 -0.023956524 -0.13143943 -0.0811011 -0.007101839 -0.073182404
0.15122174 -0.0039046516 -0.07584853 -0.028216217 -0.012477998 -0.009540244 0.024082858 0.13195507
0.07495111 0.058020044 -0.07568073 0.07257712 -0.103762425 0.11739301 -0.10012959 0.027229268
0.05918226 0.044198822 0.0007769576 0.024567962 -0.02074504 -0.08068244 -0.0403485 0.09384199
-0.01741529 -0.110910796 0.10147777 0.014288562 -0.03032217 0.06700985 0.13510817 0.07601235
0.10610061 -0.10310934 -0.010061701 -0.08340644 0.11508839 0.0250479 -0.102031924 -0.12331533
0.043657914 0.053282086 -0.072752826 0.12069147 -0.026464745 0.082518 0.086200155 0.03158511
0.054219995 0.099551484 0.06445838 0.101541065 0.0387935 -0.070884 -0.0076834783 -0.07473018
0.11807311 0.028633647 -0.1271152 0.10034609 -0.03166638 -0.13959804 -0.03524102 0.037167925
-0.1200356 0.10578943 -0.1512575 0.10149281 0.025434006 0.016632864 0.04616495 0.048104465
-0.10625671 0.0026108918 0.12605071 -0.103600994 -0.1202733 -0.013879601 -0.08995861 0.16434456
-0.0938816 0.27318248 -0.021125464 0.04987672 -0.12422666 -0.120949455 -0.057263605 0.107024394
-0.16953741 0.085178584 -0.0653067 -0.08114247 -0.05536614 0.074617825 -0.091807924 -0.062459312
-0.09521653 0.09414368 0.022735016 -0.025975311 -0.03139673 0.017896762 -0.078985155 -0.059949066
00000000: ddec 013d 1826 0dba c49f 17be 3b8e e93d
00000010: 837e 00be 239e 993d b7ef 493d 349d a2bd
00000020: c4e9 9f3d dca3 c33d 3783 ed3b 9619 0abd
00000030: 74e3 d43d 83eb f1bd 0664 23be d61c cebd
00000040: 0bdf f33d 2dc7 db3d f162 13bd 8dea 8a3d
00000050: 573b 38bd 012a 2fbe 5939 873c 96ea 3a3d
00000060: 8874 23be c1d8 e93d e073 893c f3f9 813d
00000070: 83f8 903d d902 423d c604 b13d 7bd8 82bc
00000080: 4141 ffbd 11de 993c 7322 813c 84ca 27be
00000090: 5de5 e63d 284f bfbd 8e81 6e3d 6a7f c33b
000000a0: b512 cbbd ca9c 883d ecce 21bd 1a70 753c
000000b0: 2639 30bd 10ff ba3c a168 0fbd 9e01 a33d
000000c0: 0374 0fbe a092 e43d 130e 87bd a06a 9fbd
000000d0: 214f 4dbd 6868 e1bd cc4f cdbd c1b4 e7bd
000000e0: 2280 893d b65d d4bd 3d49 8dbd 2fd7 72bd
000000f0: 9608 a8bc b640 0a3d e242 ff3c eb0f f0bd
00000100: 6e37 ea3c 4b9c a13d 75c1 23bd cfd5 b3bc
00000110: 5dba a73d 246c b2bc be35 2abd d4f9 923d
00000120: c4d4 31b9 4ed4 c9bd 4276 e43d 2a44 9d3d
00000130: 9c09 fc3d dcf0 91ba d763 d5bd 3ec0 2fbd
00000140: b279 323b 2600 ccbd 74e7 33bd 192e c73d
00000150: af2c 1fbd fe74 2cbe f6ff b0bd 1c93 18be
00000160: 03c6 09be 8338 753c 77db 473d a84e dd3d
00000170: d3f7 abbc 12df b6bd 5af6 92bd 4418 2dbe
00000180: 1614 3a3d 2b14 5b3d c7dd 64bd 6c35 dd3c
00000190: d494 50bd 1518 573d 2c2d 5d3d 390a c33d
000001a0: f5be 453b 30ad 903e f572 9f3d b725 883d
000001b0: 0044 39be 99b0 513d f36f e8bd 3345 633e
000001c0: becc 1abd 31fd e53d 0692 14be c77a 573d
000001d0: f600 26bc 417a a9b9 9bde 4bbd dabf 7ebd
000001e0: 1d2c 9ebd 80be b03d 286a fdbd 2196 e53d
000001f0: 63dc 8e3d c69d 92bd 3bed f2bc 3b49 1f3e
00000200: 0649 a8bd 8e62 8abd 55a1 8b3d 46cd 0ebe
00000210: c851 053e 8e3f cabc 8993 c0bd e792 da3d
00000220: af9d 02be 547c 1a3c ab66 783c 944c 0cb8
00000230: 8aa1 0ebe 578c 993d e25e 1a3e eae2 2b3e
00000240: ebe4 97bd 7b9d fb3d db80 bebd 7940 c4bc
00000250: 0f98 06be 5518 a6bd 8bb6 e8bb a8e0 95bd
00000260: dfd9 1a3e 2fe5 7fbb 7956 9bbd b225 e7bc
00000270: 8470 4cbc af4e 1cbc 6a49 c53c 3b1f 073e
00000280: f87f 993d 6da6 6d3d 80fe 9abd 50a3 943d
00000290: 6581 d4bd bf6b f03d be10 cdbd ea0f df3c
000002a0: 1969 723d d309 353d beac 4b3a c042 c93c
000002b0: 81f1 a9bc d63c a5bd 7844 25bd 3b30 c03d
000002c0: 83aa 8ebc 3325 e3bd 94d3 cf3d 931a 6a3c
000002d0: 3366 f8bc 763c 893d cc59 0a3e 5dac 9b3d
000002e0: 474b d93d fd2a d3bd d5d9 24bc ffd0 aabd
000002f0: 76b3 eb3d 4131 cd3c 1df6 d0bd bf8c fcbd
00000300: a4d2 323d 513e 5a3d 6fff 94bd 172d f73d
00000310: 98cc d8bc 32ff a83d b589 b03d 635f 013d
00000320: c915 5e3d a6e1 cb3d c102 843d c3f4 cf3d
00000330: efe5 1e3d a12b 91bd b0c5 fbbb 230c 99bd
00000340: 51d0 f13d 1c91 ea3c 7d2a 02be 4082 cd3d
00000350: 9bb4 01bd caf2 0ebe e358 10bd 653d 183d
00000360: 3ad5 f5bd 21a8 d83d 3fe3 1abe 76db cf3d
00000370: fa5a d03c a541 883c 7517 3d3d 3009 453d
00000380: 1e9d d9bd 7f1b 2b3b 7013 013e c22c d4bd
00000390: d951 f6bd 4467 63bc 383c b8bd f149 283e
000003a0: ff44 c0bd 93de 8b3e 4f0f adbc 884b 4c3d
000003b0: 8c6a febd 59b4 f7bd 3e8d 6abd 9b2f db3d
000003c0: 379b 2dbe 1c72 ae3d 85bf 85bd 062e a6bd
000003d0: 9bc7 62bd 3bd1 983d cb05 bcbd 56d5 7fbd
000003e0: e200 c3bd 67ce c03d c93e ba3c 2dca d4bc
000003f0: dc99 00bd 3b9c 923c f8c2 a1bd 278d 75bd

mamba_input_proj.bias f4 [64]
0.15291028 0.10874094 -0.001720679 0.15352342 -0.009188198 0.13175394 0.035931364 -0.045290284
0.06436331 -0.01977015 -0.04776662 0.016217735 -0.08431914 0.0018716245 -0.11326578 0.009555735
0.062042676 -0.1417489 -0.07857399 0.13847463 -0.09662781 -0.10828104 0.07628406 -0.053614136
0.003834979 -0.09687224 -0.14954121 0.0789539 0.030766444 -0.0004897577 -0.03487177 -0.068100095
-0.14969623 -0.051954377 -0.10117468 0.038782634 0.054038897 -0.15386318 -0.008903844 -0.09082784
-0.04824757 0.04716997 -0.02512268 0.0006161821 -0.14128228 -0.0628825 0.045772333 -0.09783522
-0.14687279 0.05496036 0.11169822 -0.10579719 0.09616855 -0.0026590116 -0.11832337 0.11909879
0.017298777 0.09976668 -0.1145616 0.09675361 -0.04686433 0.031213647 -0.0739874 -0.0028653827
00000000: 8394 1c3e 92b3 de3d 6888 e1ba 3e35 1d3e
00000010: 188a 16bc 81ea 063e c42c 133d 4e82 39bd
00000020: e9d0 833d 02f5 a1bc eea6 43bd 0edb 843c
00000030: 83af acbd 4c51 f53a e4f7 e7bd a88f 1c3c
00000040: 7620 7e3d a026 11be 66eb a0bd 4bcc 0d3e
00000050: cde4 c5bd 73c2 ddbd d13a 9c3d 7f9a 5bbd
00000060: 4554 7b3b f464 c6bd 5521 19be 95b2 a13d
00000070: e909 fc3c 1563 00ba b3d5 0ebd 1078 8bbd
00000080: f849 19be 1dce 54bd ac34 cfbd 8ada 1e3d
00000090: e457 5d3d 4f8e 1dbe 6ee1 11bc f203 babd
000000a0: 3e9f 45bd 4c35 413d 14ce cdbc 4887 213a
000000b0: 4dac 10be 8ac8 80bd c57b 3b3d d55d c8bd
000000c0: d265 16be 1d1e 613d 09c2 e43d 32ac d8bd
000000d0: 04f4 c43d d042 2ebb 8653 f2bd 11ea f33d
000000e0: 2ab6 8d3c 7952 cc3d 469f eabd c226 c63d
000000f0: d0f4 3fbd c3b3 ff3c b586 97bd 25c9 3bbb

mamba.A_log f4 [128, 16]
0.059159316 0.72631925 1.122834 1.4330662 1.6176848 1.8128457 1.9464957 2.0607133
2.2011175 2.3894074 2.3672588 2.4692264 2.566088 2.5949144 2.6994643 2.7472692
0.038993828 0.70508945 1.0858425 1.3979405 1.5541959 1.7529532 1.893198 1.9984251
2.157784 2.4256668 2.3283179 2.4479706 2.5336156 2.5854142 2.6758397 2.7359538
0.003937644 0.68848574 1.0782521 1.3628813 1.5400972 1.7550807 1.8822619 2.012039
2.112616 2.3475957 2.3428946 2.4338088 2.5669963 2.6022844 2.7234385 2.716372
0.05073025 0.7360904 1.1317649 1.4572673 1.6382816 1.8248161 1.9692309 2.102476
2.2370071 2.4073923 2.4182956 2.5115771 2.6015224 2.6650376 2.737227 2.7851696
0.13430184 0.8244261 1.1942588 1.434728 1.6413813 1.8342212 1.9353166 2.0908477
2.1978154 2.4614575 2.395801 2.499258 2.581975 2.6350846 2.7273815 2.76389
0.0052338163 0.69270265 1.1070493 1.4119749 1.5970832 1.8010081 1.9412136 2.0714386
2.1985855 2.3925796 2.391476 2.4788158 2.5760574 2.6419604 2.7219188 2.759523
0.006645648 0.6230123 1.0550685 1.3723272 1.5203216 1.6986592 1.8481159 1.9585972
2.1377923 2.1519165 2.2817757 2.390504 2.4642923 2.5275493 2.5524642 2.6484578
0.12744068 0.7895423 1.1710151 1.5341163 1.690247 1.8676732 2.0202274 2.1502125
2.3272717 2.4212024 2.469245 2.583713 2.644517 2.7129116 2.7781925 2.8677468
0.010979947 0.6539565 1.0607724 1.4007729 1.5516386 1.7554171 1.9008219 2.0162544
2.1979475 2.3057692 2.3541996 2.465443 2.5645144 2.6190639 2.6927145 2.7551186
0.018453421 0.67774683 1.1166538 1.3880385 1.6402968 1.8034248 1.962716 2.1160834
2.2105591 2.2506294 2.4279406 2.5125618 2.5852349 2.677619 2.704221 2.78524
0.05203222 0.7446087 1.1310506 1.4255422 1.5999995 1.837824 1.9335259 2.0587716
2.1480424 2.4411356 2.348228 2.5045571 2.5851893 2.57021 2.8412385 2.7714283
0.096538775 0.7791234 1.1645006 1.4703428 1.6492585 1.8501451 1.9634917 2.0830197
2.2262838 2.4745946 2.3819945 2.483215 2.576449 2.5944123 2.7152853 2.7525513
0.022754254 0.69741154 1.1082792 1.4138188 1.6090741 1.8058007 1.9457396 2.0794199
2.2079928 2.4449322 2.3987873 2.4931686 2.583947 2.6486633 2.720793 2.774669
0.0608365 0.7337432 1.1449937 1.4263093 1.6536808 1.8498831 1.9690062 2.1329813
2.22359 2.3489423 2.4434206 2.5270293 2.6101909 2.6895554 2.747443 2.795535
0.05296372 0.7228132 1.1072046 1.394093 1.5807405 1.7760786 1.906738 2.0415273
2.1729317 2.3369048 2.3573809 2.458995 2.5421355 2.5918138 2.6702878 2.7362843
-0.018775938 0.6291093 1.0409913 1.3732202 1.5385132 1.741698 1.8965054 2.0137064
2.1609497 2.3277912 2.345744 2.4504287 2.5371137 2.6001403 2.6793423 2.7436106
00000000: 0a51 723d 0ff0 393f 06b9 8f3f b76e b73f
00000010: 4c10 cf3f 540b e83f c526 f93f bae2 0340
00000020: 1cdf 0c40 0dec 1840 2b81 1740 ce07 1e40
00000030: c93a 2440 1413 2640 06c4 2c40 42d3 2f40
00000040: feb7 1f3d be80 343f e3fc 8a3f b7ef b23f
00000050: e4ef c63f c560 e03f 5054 f23f 65cc ff3f
00000060: 2219 0a40 203e 1b40 2903 1540 8dab 1c40
00000070: c226 2240 6d77 2540 f540 2b40 de19 2f40
00000080: 5a07 813b 9a40 303f 2a04 8a3f e572 ae3f
00000090: e821 c53f 7ca6 e03f f5ed f03f 3fc5 0040
000000a0: 1a35 0740 023f 1640 fcf1 1540 86c3 1b40
000000b0: ab49 2440 d48b 2640 d14c 2e40 0ad9 2d40
000000c0: 86ca 4f3d 6c70 3c3f acdd 903f bc87 ba3f
000000d0: 36b3 d13f 9393 e93f c20f fc3f f78e 0640
000000e0: 202b 0f40 b712 1a40 5bc5 1a40 aebd 2040
000000f0: 587f 2640 fa8f 2a40 ba2e 2f40 3840 3240
00000100: 6c86 093e 970d 533f 79dd 983f 2ba5 b73f
00000110: c818 d23f c3c7 ea3f 74b8 f73f 73d0 0540
00000120: 02a9 0c40 8588 1d40 ce54 1940 d8f3 1f40
00000130: 143f 2540 3aa5 2840 6b8d 2e40 93e3 3040
00000140: 6f80 ab3b f654 313f cbb3 8d3f 98bb b43f
00000150: 396d cc3f 6f87 e63f b079 f83f 7392 0440
00000160: a0b5 0c40 0620 1940 f10d 1940 eba4 1e40
00000170: 20de 2440 e115 2940 eb33 2e40 069c 3040
00000180: bcc3 d93b bc7d 1f3f 7c0c 873f 6ba8 af3f
00000190: e699 c23f aa6d d93f 108f ec3f 50b3 fa3f
000001a0: 97d1 0840 00b9 0940 9d08 1240 04fe 1840
000001b0: f7b6 1d40 5ec3 2140 935b 2340 5580 2940
000001c0: cf7f 023e 721f 4a3f d3e3 953f ec5d c43f
000001d0: 045a d83f ea0f ef3f 684b 0140 159d 0940
000001e0: 05f2 1440 fbf4 1a40 1c08 1e40 8e5b 2540
000001f0: c43f 2940 58a0 2d40 e8cd 3140 2a89 3740
00000200: 3ce5 333c b169 273f 64c7 873f 874c b33f
00000210: 189c c63f 82b1 e03f 224e f33f 500a 0140
00000220: 2cab 0c40 b991 1340 35ab 1640 d1c9 1d40
00000230: 0121 2440 be9e 2740 6f55 2c40 dd53 3040
00000240: a12b 973c d180 2d3f 83ee 8e3f 3fab b13f
00000250: 3ff5 d13f a0d6 e63f 473a fb3f e96d 0740
00000260: cd79 0d40 500a 1040 6163 1b40 d0cd 2040
00000270: 7d74 2540 1c5e 2b40 f511 2d40 5f41 3240
00000280: bd1f 553d ad9e 3e3f 44c6 903f 2b78 b63f
00000290: c9cc cc3f d13d eb3f c77d f73f eac2 0340
000002a0: 8779 0940 913b 1c40 5e49 1640 aa4a 2040
000002b0: be73 2540 527e 2440 dad6 3540 155f 3140
000002c0: 1fb6 c53d a274 473f 5b0e 953f 3134 bc3f
000002d0: e71a d33f 8ed1 ec3f b253 fb3f 3250 0540
000002e0: 6f7b 0e40 c25f 1e40 9972 1840 ffec 1e40
000002f0: 8ae4 2440 da0a 2640 3cc7 2d40 cd29 3040
00000300: 2167 ba3c 9089 323f 18dc 8d3f 04f8 b43f
00000310: 24f6 cd3f 7a24 e73f ff0d f93f 3715 0540
00000320: c14f 0d40 c579 1c40 bb85 1940 1390 1f40
00000330: 635f 2540 b383 2940 7921 2e40 2d94 3140
00000340: b22f 793d 98d6 3b3f 278f 923f 4e91 b63f
00000350: d0ab d33f f8c8 ec3f 6508 fc3f c482 0840
00000360: 4c4f 0e40 1255 1640 0161 1c40 d9ba 2140
00000370: 5e0d 2740 ad21 2c40 1bd6 2f40 0cea 3240
00000380: 7cf0 583d 490a 393f e1b8 8d3f a471 b23f
00000390: b455 ca3f 8b56 e33f fe0f f43f 62a8 0240
000003a0: 5011 0b40 d98f 1540 54df 1640 2d60 1d40
000003b0: 59b2 2240 47e0 2540 ffe5 2a40 481f 2f40
000003c0: ffcf 99bc 4f0d 213f 343f 853f aec5 af3f
000003d0: 00ee c43f f6ef de3f b0c0 f23f 91e0 0040
000003e0: 004d 0a40 88fa 1440 ab20 1640 d3d3 1c40
000003f0: 1260 2240 b368 2640 587a 2b40 5197 2f40

mamba.D f4 [128]
1.133118 1.0270493 1.0598226 1.0342753 0.9538765 1.0320859 1.1120621 1.029743
1.0703722 0.9685566 0.9927623 1.1034021 1.0234053 1.0111752 1.0210286 1.049908
1.0413142 0.92491335 1.0808371 1.1327088 1.0860621 1.035245 1.075705 0.99458075
1.11043 1.0373831 1.0468056 1.0931685 0.9838741 0.9915246 1.0346062 0.95137995
1.0473808 1.0919589 1.0635284 0.9995642 1.0716659 1.0376235 0.9858318 1.0139984
1.0939921 0.947355 0.992841 1.0604006 1.1503463 1.0103297 1.0363566 1.0124162
1.0546932 1.0794429 1.240292 0.9416295 0.9808188 1.1282129 1.0909697 1.0197142
1.114437 1.0313057 1.0693396 1.0131251 1.0760295 1.0738366 1.022201 0.9951449
1.0254482 0.9494624 0.99472964 1.0600591 1.0809914 1.0709472 1.1049298 1.060023
1.0194768 1.1109972 1.1024349 0.96625 1.0807792 1.066813 1.0112087 1.0038599
1.0200936 1.0546991 1.0543834 1.0826992 1.0095837 1.1230215 1.0595556 1.081532
1.0042193 1.0546166 1.0894926 1.0746063 0.9996949 1.1002879 1.0325731 1.0773147
1.0571446 1.0057929 1.0265368 1.2283596 1.000354 1.0127971 1.0410516 1.0011361
1.010494 1.0977051 1.041453 1.0125006 1.1214272 1.0252384 1.0772078 1.053755
1.14888 1.1218708 1.07386 1.0067145 1.0184137 1.1085147 1.0151864 1.0144824
0.9765489 1.067729 0.9848494 1.0175323 0.9559569 1.109465 1.0012976 1.0790803
00000000: 030a 913f 5a76 833f 44a8 873f 2263 843f
00000010: 4031 743f 641b 843f 0d58 8e3f 9ece 833f
00000020: f501 893f 53f3 773f ac25 7e3f 483c 8d3f
00000030: f2fe 823f 306e 813f 11b1 823f 6363 863f
00000040: c949 853f 1fc7 6c3f df58 8a3f 9afc 903f
00000050: 1504 8b3f e882 843f b4b0 893f d89c 7e3f
00000060: 9222 8e3f f8c8 843f bafd 853f f2ec 8b3f
00000070: 2cdf 7b3f 8ed4 7d3f fa6d 843f a38d 733f
00000080: 9310 863f 4fc5 8b3f b321 883f 70e3 7f3f
00000090: 592c 893f d9d0 843f 795f 7c3f b3ca 813f
000000a0: ef07 8c3f db85 723f d42a 7e3f 35bb 873f
000000b0: 8c3e 933f 7c52 813f 55a7 843f db96 813f
000000c0: 3000 873f 2f2b 8a3f e3c1 9e3f a20e 713f
000000d0: f116 7b3f 4869 903f e5a4 8b3f ff85 823f
000000e0: dfa5 8e3f d301 843f 1fe0 883f 15ae 813f
000000f0: 56bb 893f 7a73 893f 7bd7 823f d1c1 7e3f
00000100: e341 833f f80f 733f 9aa6 7e3f 04b0 873f
00000110: ed5d 8a3f cc14 893f 576e 8d3f d5ae 873f
00000120: 377e 823f 2835 8e3f 961c 8d3f 295c 773f
00000130: f956 8a3f 548d 883f 496f 813f 7b7e 803f
00000140: 6d92 823f 6100 873f 09f6 863f e395 8a3f
00000150: 0a3a 813f 2bbf 8f3f 859f 873f a46f 8a3f
00000160: 428a 803f adfd 863f 7e74 8b3f b38c 893f
00000170: 01ec 7f3f 3cd6 8c3f 5b2b 843f 73e5 893f
00000180: 8450 873f d2bd 803f 8f65 833f e33a 9d3f
00000190: 9a0b 803f 56a3 813f 2e41 853f 3a25 803f
000001a0: de57 813f 9a81 8c3f 554e 853f 9f99 813f
000001b0: ed8a 8f3f 033b 833f f2e1 893f 72e1 863f
000001c0: 800e 933f 7699 8f3f 3f74 893f 05dc 803f
000001d0: 615b 823f cfe3 8d3f a1f1 813f 8fda 813f
000001e0: 1cff 793f 58ab 883f 171f 7c3f 803e 823f
000001f0: 97b9 743f f302 8e3f 852a 803f 4e1f 8a3f

mamba.in_proj.weight f4 [256, 64]
-0.007533905 0.054758016 -0.091220565 0.13797966 0.015604787 0.14306702 -0.026096962 0.011304926
0.13482606 0.041072085 -0.068818934 0.084464714 -0.10506577 0.025766123 -0.012810298 0.11254716
0.17525376 -0.20076452 -0.0746549 0.057373334 -0.03203975 -0.15793195 0.018987728 -0.18465054
0.00819462 -0.14096661 -0.0252322 0.07717061 0.014547162 -0.028465586 0.07030346 0.055691633
-0.13108031 0.1005781 -0.12241785 0.109553024 0.051673062 -0.065525986 -0.15066417 -0.035693802
0.03860452 0.09288293 0.043879542 -0.18684885 0.05771719 -0.20879209 0.056236982 -0.16583166
0.00078362407 0.11530279 0.17105281 -0.0323741 0.08682337 -0.05053447 -0.115475744 0.023206668
-0.09704059 0.012855426 -0.05543504 0.17136544 -0.17308696 0.039660856 -0.117973365 0.14620675
0.11807956 0.016322685 0.031275228 -0.016269272 0.063454084 0.11047216 0.17509952 0.05718472
-0.11845731 0.08321697 -0.0072764116 0.08559641 -0.1202465 -0.0037578891 -0.041340917 -0.08983053
0.08142865 0.08938268 -0.06783905 -0.09178879 -0.07121832 -0.1095032 0.028899554 -0.14941809
0.16000901 -0.088676535 0.0058803167 -0.017680913 -0.05223254 -0.018221237 0.04290981 -0.08876951
-0.032173663 0.012798771 -0.09774331 0.073548414 0.046824634 -0.12599568 -0.009686451 -0.16481261
0.026385872 -0.08683979 0.009276014 0.13010758 -0.02317195 0.123846866 0.095661476 0.12252528
-0.038742676 0.1365767 -0.09140018 -0.047373742 -0.06259805 -0.037520785 0.06609944 -0.08283411
-0.10537047 0.019920371 0.006212785 0.0058695227 -0.0050268383 -0.042003147 -0.08626965 0.0021963276
-0.115207165 -0.24160811 0.04774562 0.0013339823 0.18102746 -0.08467465 0.03631975 -0.0061455863
0.012116761 -0.05604209 0.17321448 0.037548847 0.1523816 -0.16894865 0.100762546 -0.083637185
-0.014408878 0.18431136 0.114555754 -0.016495742 0.048250534 -0.009784056 -0.16527335 0.24894339
0.28857955 0.14536631 -0.044912934 -0.22010615 0.12316613 -0.08319885 0.0072341436 0.17275897
0.13802251 -0.07310969 0.13130787 -0.10803382 -0.2561754 -0.025384948 0.22150972 -0.05549834
0.04631777 -0.19511795 -0.24304886 0.017394114 0.03996971 0.035804134 0.10963981 0.11430687
0.11106086 0.10339504 -0.07224453 0.18591733 -0.10677637 -0.19355476 0.19811755 -0.0067770537
0.17579582 -0.15286382 0.095139384 -0.08373475 0.029885441 -0.06523969 0.049623746 -0.10579686
-0.077080935 0.04983311 0.22584166 -0.10258735 0.15880874 0.037591226 0.0741178 0.017361987
-0.05456891 -0.13127738 0.037507225 -0.0022870547 0.027344286 0.099167034 -0.02471953 0.045333937
-0.10459249 -0.10356877 0.1165983 -0.08748118 0.07333755 0.15052117 0.012506858 -0.024979819
0.034019995 0.08526347 0.21711925 0.02733173 0.07550176 -0.03768887 0.11712334 0.032429162
0.057004597 -0.023430737 -0.051252205 -0.027769493 -0.10856124 -0.03771914 -0.08497983 -0.05919593
-0.07030465 -0.14528179 -0.068829626 0.033561915 -0.084195316 0.04996389 0.06485298 0.14885113
-0.11279024 0.0018141267 -0.12053485 -0.06692036 -0.08275765 0.10031435 -0.08011791 0.020908099
0.057598684 -0.053602315 -0.035942722 0.08253724 0.15197562 -0.07201163 -0.011268122 0.11554408
00000000: fade f6bb f149 603d d9d1 babd 8a4a 0d3e
00000010: 38ab 7f3c 2980 123e 4cc9 d5bc 4c38 393c
00000020: d80f 0a3e 343b 283d f1f0 8cbd d6fb ac3d
00000030: b92c d7bd 7a13 d33c 49e2 51bc 207f e63d
00000040: b975 333e 3795 4dbe abe4 98bd 4d00 6b3d
00000050: 1d3c 03bd eab8 21be 278c 9b3c 0815 3dbe
00000060: ba42 063c 8d59 10be c2b3 cebc a00b 9e3d
00000070: 3857 6e3c a930 e9bc 43fb 8f3d e91c 643d
00000080: eb39 06be e4fb cd3d 36b6 fabd 565d e03d
00000090: 22a7 533d 7d32 86bd b547 1abe aa33 12bd
000000a0: c61f 1e3d 6839 be3d 09bb 333d 4e55 3fbe
000000b0: dc68 6c3d 98cd 55be c058 663d c6cf 29be
000000c0: 1f6c 4d3a df23 ec3d 7828 2f3e b49a 04bd
000000d0: 73d0 b13d 3bfd 4ebd 8c7e ecbd e91b be3c
000000e0: 38bd c6bd 919f 523c da0f 63bd 6c7a 2f3e
000000f0: b53d 31be 6c73 223d 059c f1bd 39b7 153e
00000100: b2d3 f13d 27b7 853c 741a 003d 2347 85bc
00000110: 37f4 813d 3a3f e23d 4a4d 333e 863a 6a3d
00000120: bf99 f2bd a96d aa3d f76e eebb 2c4d af3d
00000130: cc43 f6bd eb46 76bb 1855 29bd 12f9 b7bd
00000140: 10c4 a63d 440e b73d 33ef 8abd c3fb bbbd
00000150: e9da 91bd 3743 e0bd c2be ec3c 0e01 19be
00000160: 67d9 233e 0b9c b5bd acaf c03b 90d7 90bc
00000170: caf1 55bd b444 95bc 32c2 2f3d cacc b5bd
00000180: 88c8 03bd f0b1 513c a52d c8bd 8da0 963d
00000190: 30cb 3f3d 0305 01be ecb3 1ebc a3c4 28be
000001a0: 2f27 d83c 0fd9 b1bd 6cfa 173c ec3a 053e
000001b0: 1ad3 bdbc 6da3 fd3d 2aea c33d 89ee fa3d
000001c0: a4b0 1ebd c3da 0b3e 0430 bbbd f80a 42bd
000001d0: 6833 80bd 65af 19bd 255f 873d eea4 a9bd
000001e0: 79cc d7bd 0c30 a33c 9e94 cb3b 2055 c03b
000001f0: 2db8 a4bb 7e0b 2cbd 24ae b0bd 43f0 0f3b
00000200: bcf1 ebbd 1e68 77be e990 433d 05d9 ae3a
00000210: 435f 393e e769 adbd 05c4 143d ea60 c9bb
00000220: 6185 463c 648c 65bd 235f 313e d2cc 193d
00000230: ec09 1c3e e000 2dbe 985c ce3d f949 abbd
00000240: 3713 6cbc 1ebc 3c3e 359c ea3d 1422 87bc
00000250: 5aa2 453d 4e4d 20bc 6b3d 29be 04eb 7e3e
00000260: b3c0 933e e8da 143e a0f6 37bd 8263 61be
00000270: 863e fc3d 2964 aabd 650c ed3b bae7 303e
00000280: c655 0d3e 88ba 95bd 9275 063e d640 ddbd
00000290: 6c29 83be 18f4 cfbc 72d3 623e 3a52 63bd
000002a0: b4b7 3d3d 00cd 47be cde1 78be 1a7e 8e3c
000002b0: 47b7 233d 5ba7 123d d68a e03d b819 ea3d
000002c0: e073 e33d c7c0 d33d f1f4 93bd 1d61 3e3e
000002d0: 92ad dabd 3833 46be 54df 4a3e 0c12 debb
000002e0: d203 343e 5588 1cbe 70d8 c23d 207d abbd
000002f0: 50d2 f43c 639c 85bd 4542 4b3d 06ac d8bd
00000300: 9cdc 9dbd ce1d 4c3d 0943 673e 5119 d2bd
00000310: c29e 223e 42f9 193d 13cb 973d ba3a 8e3c
00000320: a683 5fbd 946d 06be 2da1 193d 69e2 15bb
00000330: 2001 e03c 1618 cb3d 9d80 cabc 14b0 393d
00000340: 9634 d6bd dd1b d4bd 17cb ee3d 5529 b3bd
00000350: ff31 963d 3922 1a3e 91e9 4c3c 7aa2 ccbc
00000360: 8d58 0b3d 9d9e ae3d 8254 5e3e cbe6 df3c
00000370: aba0 9a3d a55f 1abd 5dde ef3d 71d4 043d
00000380: a77d 693d d1f1 bfbc d5ed 51bd d97c e3bc
00000390: 5b55 debd 637f 1abd e809 aebd 6e77 72bd
000003a0: e2fb 8fbd c0c4 14be 8cf6 8cbd 3878 093d
000003b0: 986e acbd f0a6 4c3d a4d1 843d 6e6c 183e
000003c0: 92fe e6bd fec7 ed3a fada f6bd 8b0d 89bd
000003d0: d87c a9bd 9c71 cd3d dc14 a4bd 7647 ab3c
000003e0: 99ec 6b3d 1a8e 5bbd ad38 13bd 4909 a93d
000003f0: 7f9f 1b3e d57a 93bd ee9d 38bc 60a2 ec3d

mamba.conv1d.weight f4 [128, 1, 4]
0.13679534 0.20738411 0.0367607 -0.24796273 0.3671615 0.13017432 0.23144902 0.32311547
-0.44824103 -0.46741804 -0.2636702 0.28877413 0.20865151 -0.34273547 -0.2151539 0.2682678
0.04934786 0.42332962 0.37366128 0.35349587 -0.3952277 -0.49185345 -0.19109103 0.028762052
0.2743733 -0.24317923 -0.35467288 -0.37012637 0.21829242 -0.31412053 -0.5182389 0.20873256
-0.40119028 -0.39328623 -0.076387785 -0.4738745 0.47601572 -0.33191726 0.44856063 0.1719173
-0.56285954 -0.5811977 -0.32054046 0.21491937 0.3281513 0.07990639 0.082912 -0.090373226
-0.15175377 0.0031333808 -0.23214974 -0.41049102 -0.21176922 0.14301643 0.45171055 -0.090950504
0.33621034 -0.2867519 -0.37085432 -0.07832803 0.098115504 0.2889809 -0.075263925 0.40202814
0.706565 0.57125354 0.39758393 0.33314523 0.17051582 -0.29533336 0.28120905 0.4522077
0.4463826 0.31899267 -0.43589628 -0.38810298 0.14013968 0.25221935 0.373305 -0.3901966
0.12360945 0.47701558 -0.17565069 -0.024444517 0.31421533 0.14260703 -0.00985434 -0.30737063
0.30263007 -0.5303644 -0.47543943 0.11111026 -0.51773715 0.21336104 0.051511936 -0.026288075
0.0058781467 -0.14106353 -0.3652287 0.15790386 -0.29297405 -0.41851085 0.032875046 -0.17728107
0.18198694 -0.3308291 -0.05994908 0.14668152 -0.3404115 0.51861894 -0.21983793 0.151472
0.010097523 -0.40237913 -0.115204684 -0.086271934 0.39950708 -0.24846092 -0.002712064 0.28648055
-0.10609651 0.13285635 -0.045995507 -0.010635674 -0.081928894 0.08300098 0.42442203 0.28420913
-0.11310157 0.123985216 0.39456016 0.06218352 -0.039524402 0.110606596 -0.24472198 -0.35109237
-0.3400072 0.5191309 0.40687528 0.36041498 -0.40609667 0.14055072 0.25877842 0.297286
0.13726151 -0.2562791 -0.3225173 -0.26182696 -0.4614892 0.34152123 0.115536645 0.030991383
0.27450266 -0.07776874 -0.20052487 0.054273102 0.233517 0.44340128 -0.016905911 -0.22441892
0.015400517 -0.39946267 -0.20985472 0.26780862 0.14302373 0.29219678 0.4258508 0.2287111
-0.15254205 -0.24181445 -0.30489412 0.04435403 -0.39329654 -0.31359094 -0.06064221 0.324059
-0.16997996 -0.47377852 0.35680246 0.24911305 -0.09782861 -0.097097546 -0.39228886 -0.033713866
0.32621008 0.16126496 -0.31753775 -0.26433042 0.41155934 0.13799198 0.05400489 0.30469158
0.44413668 0.14324887 -0.006705492 -0.46426773 -0.30311388 -0.23653689 -0.36317456 -0.093593374
0.48037735 -0.40375876 -0.21204859 0.30923265 0.35094124 -0.3374784 -0.065501444 0.1493583
0.12650058 -0.037089728 -0.43324494 -0.22269067 -0.3733761 0.04932123 0.1005764 0.066460274
-0.42758977 -0.14178695 -0.14916909 0.07093482 0.1447263 0.2712767 -0.21908118 -0.30779928
0.22028382 0.16384259 -0.2077354 0.013448656 -0.39445633 0.3207798 0.021247663 0.098955475
0.20566638 0.2617141 0.29022512 0.27114934 -0.026191784 0.3466608 0.29363847 -0.005611077
-0.31217054 -0.17789413 0.08675835 0.35110238 -0.19914508 -0.14603695 -0.15166482 -0.13357303
0.014513193 0.46179777 -0.14824976 -0.22132692 0.44082582 -0.16360696 -0.05234187 0.26903623
00000000: 1414 0c3e 805c 543e 6392 163d f1e9 7dbe
00000010: 98fc bb3e 6b4c 053e f900 6d3e 646f a53e
00000020: d97f e5be 6b51 efbe c8ff 86be 34da 933e
00000030: bea8 553e 067b afbe 4e51 5cbe 665a 893e
00000040: fb20 4a3d a9be d83e 8850 bf3e 69fd b43e
00000050: 495b cabe 37d4 fbbe 5ead 43be 659e eb3c
00000060: a87a 8c3e fa03 79be af97 b5be 3481 bdbe
00000070: 0c88 5f3e 68d4 a0be 4eab 04bf fdbd 553e
00000080: d068 cdbe d05c c9be 3371 9cbd ae9f f2be
00000090: 55b8 f33e 0ff1 a9be bda9 e53e 170b 303e
000000a0: 9017 10bf 5fc9 14bf e11d a4be d313 5c3e
000000b0: 7203 a83e f6a5 a33d c4cd a93d 9915 b9bd
000000c0: 5765 1bbe 6859 4d3b a9b8 6dbe e12b d2be
000000d0: 08da 58be e672 123e 9b46 e73e 4244 babd
000000e0: c323 ac3e 25d1 92be 9ee0 bdbe 726a a0bd
000000f0: c8f0 c83d 4ef5 933e f923 9abd a2d6 cd3e
00000100: 72e1 343f ac3d 123f 1f90 cb3e 0392 aa3e
00000110: b39b 2e3e ef35 97be a2fa 8f3e c587 e73e
00000120: 438c e43e 0253 a33e cc2d dfbe 6fb5 c6be
00000130: c780 0f3e e522 813e d521 bf3e d9c7 c7be
00000140: f426 fd3d 633b f43e c6dd 33be de3f c8bc
00000150: d5e0 a03e 9407 123e 1974 21bc af5f 9dbe
00000160: 54f2 9a3e f6c5 07bf cc6c f3be c78d e33d
00000170: 6c8a 04bf 517b 5a3e 2efe 523d 175a d7bc
00000180: 789d c03b f572 10be 42ff babe 8db1 213e
00000190: b200 96be 0e47 d6be fca7 063d 2b89 35be
000001a0: c95a 3a3e 6f62 a9be 2b8d 75bd ae33 163e
000001b0: 6b4a aebe 36c4 043f 321d 61be 7a1b 1b3e
000001c0: 1570 253c a304 cebe 6ff0 ebbd 57af b0bd
000001d0: 318c cc3e 8a6c 7ebe e2bc 31bb 94ad 923e
000001e0: 2149 d9bd 7f0b 083e c965 3cbd 4041 2ebc
000001f0: 56ca a7bd 6bfc a93d d84d d93e dc83 913e
00000200: cca1 e7bd f6eb fd3d ca03 ca3e 26b4 7e3d
00000210: 57e4 21bd b685 e23d 6698 7abe 61c2 b3be
00000220: 6c15 aebe c3e5 043f f551 d03e 5088 b83e
00000230: e7eb cfbe 87ec 0f3e 9b7e 843e df35 983e
00000240: 488e 0c3e 0437 83be fd20 a5be 2f0e 86be
00000250: 5048 ecbe dfdb ae3e 7a9e ec3d a4e1 fd3c
00000260: 9d8b 8c3e 3845 9fbd 6456 4dbe 794d 5e3d
00000270: 151f 6f3e 7e05 e33e 447e 8abc 13ce 65be
00000280: 7352 7c3c 5f86 ccbe 28e4 56be 361e 893e
00000290: d074 123e d19a 953e 1e09 da3e 3e33 6a3e
000002a0: fc33 1cbe 359e 77be 151b 9cbe 92ac 353d
000002b0: 2a5e c9be fe8e a0be f763 78bd 10eb a53e
000002c0: 3a0f 2ebe 1993 f2be d0ae b63e 7e17 7f3e
000002d0: 5e5a c8bd 14db c6bd 16da c8be 8d17 0abd
000002e0: 0205 a73e a422 253e 4f94 a2be 5156 87be
000002f0: e8b7 d23e c54d 0d3e 3b34 5d3d 8900 9c3e
00000300: e265 e33e d5af 123e beb9 dbbb 80b4 edbe
00000310: be31 9bbe ba36 72be 04f2 b9be e2ad bfbd
00000320: 05f4 f53e 78b9 cebe 4423 59be be53 9e3e
00000330: 92ae b33e f8c9 acbe 9f25 86bd 62f1 183e
00000340: 5e89 013e 66eb 17bd 48d2 ddbe 0609 64be
00000350: 272b bfbe 0f05 4a3d 00fb cd3d 531c 883d
00000360: 0ced dabe 9930 11be c8bf 18be 4646 913d
00000370: 2233 143e c8e4 8a3e d156 60be de97 9dbe
00000380: 1592 613e 5ac6 273e 97b8 54be c057 5c3c
00000390: 2ef6 c9be 403d a43e 940f ae3c 2ba9 ca3d
000003a0: 359a 523e 64ff 853e 6398 943e 16d4 8a3e
000003b0: 2790 d6bc 867d b13e c857 963e 20dd b7bb
000003c0: d1d4 9fbe e129 36be 5dae b13d b1c3 b33e
000003d0: b0ec 4bbe b68a 15be 064e 1bbe 5ec7 08be
000003e0: bec8 6d3c c270 ec3e c9ce 17be 86a3 62be
000003f0: ecb3 e13e 9588 27be 6e64 56bd 1ebf 893e

mamba.conv1d.bias f4 [128]
0.45975322 0.12485516 -0.26616147 0.24898326 0.3105869 -0.44304132 -0.4195271 0.49625435
0.23255609 0.12669662 0.073633626 -0.37815148 0.23115371 0.44132268 0.16460651 0.49028605
-0.4642396 -0.24773648 -0.087989815 -0.20528993 0.48506147 0.23470196 -0.23121174 -0.45532984
-0.4616617 0.1362685 -0.1657883 -0.2961825 -0.24486516 -0.16652247 -0.2827749 -0.3699021
-0.16903238 -0.5074262 0.5215908 -0.15346901 0.15906739 0.15651369 0.11533183 -0.20034134
-0.23017447 -0.27101538 0.11558067 -0.4120561 -0.26620683 -0.18917505 0.47904465 -0.24956603
-0.08786367 0.3294526 -0.2522613 -0.12900525 0.07766214 -0.27043054 -0.36277628 -0.3501124
0.5298828 0.32359874 -0.48110753 -0.37004852 0.35249877 -0.54351383 0.2932186 0.4316294
-0.37603346 -0.3895715 0.29172966 -0.29709113 0.4182406 -0.31508675 -0.3172285 -0.120766364
0.027434645 -0.42342377 -0.337333 0.055734422 0.23638059 -0.5178738 0.19125761 0.042455323
-0.37116405 -0.4364119 0.52422625 -0.38020065 0.2963251 0.12746006 0.19430466 0.54051495
-0.17383376 0.49695483 -0.064619675 0.30289692 -0.12239672 -0.48671773 0.18987863 -0.38480598
-0.5474103 0.37716654 -0.30768716 -0.3211775 -0.5336562 -0.2608066 0.4755026 0.12878478
-0.16278131 0.27550668 0.25372425 -0.19306909 0.3773596 -0.10406936 0.33533418 0.5074696
0.35400787 0.28278503 0.22639106 -0.4563332 0.38230032 -0.5290788 -0.09675012 0.46472156
0.04442167 0.2241218 -0.26103646 -0.30134156 -0.36211422 -0.42295554 0.06277938 -0.5588133
00000000: c664 eb3e 10b4 ff3d 5146 88be 78f5 7e3e
00000010: 3f05 9f3e 50d6 e2be 42cc d6be 0d15 fe3e
00000020: 2f23 6e3e c2bc 013e 3acd 963d 129d c1be
00000030: 8fb3 6c3e 0cf5 e13e 9c8e 283e c606 fb3e
00000040: d0b0 edbe a2ae 7dbe 0134 b4bd 8637 52be
00000050: fa59 f83e b655 703e c5c2 6cbe fe20 e9be
00000060: ec5e ecbe f889 0b3e 68c4 29be 3ca5 97be
00000070: efbd 7abe de84 2abe dfc7 90be cf63 bdbe
00000080: d316 2dbe afe6 01bf fa86 053f fb26 1dbe
00000090: 90e2 223e 2045 203e 1833 ec3d 4826 4dbe
000000a0: dbb2 6bbe 87c2 8abe 8fb5 ec3d 04f9 d2be
000000b0: 434c 88be 1bb7 41be 5745 f53e 3d8e 7fbe
000000c0: def1 b3bd 03ae a83e 6528 81be f419 04be
000000d0: 540d 9f3d df75 8abe d0bd b9be ef41 b3be
000000e0: 66a6 073f bcae a53e ba53 f6be 0077 bdbe
000000f0: b87a b43e b923 0bbf c020 963e 87fe dc3e
00000100: 7587 c0be ea75 c7be 975d 953e 541c 98be
00000110: a223 d63e 0d53 a1be c66b a2be 5b54 f7bd
00000120: 9fbe e03c 00cb d8be e9b6 acbe c749 643d
00000130: c10d 723e 6193 04bf 09d9 433e a2e5 2d3d
00000140: 3709 bebe 6171 dfbe b133 063f a9a9 c2be
00000150: ecb7 973e e484 023e cdf7 463e 305f 0a3f
00000160: 7a01 32be dd70 fe3e 5257 84bd 4e15 9b3e
00000170: 22ab fabd 1133 f9be 8b6f 423e 4a05 c5be
00000180: 1523 0cbf f91b c13e 2c89 9dbe 6171 a4be
00000190: b19d 08bf 7188 85be 1475 f33e 28e0 033e
000001a0: 25b0 26be 360f 8d3e 25e8 813e e7b3 45be
000001b0: 4735 c13e 5122 d5bd ecb0 ab3e 87e9 013f
000001c0: 8540 b53e 33c9 903e 0fd3 673e 81a4 e9be
000001d0: debc c33e b571 07bf ed24 c6bd fcef ed3e
000001e0: 7ff3 353d 2f80 653e 92a6 85be 7149 9abe
000001f0: 0967 b9be a18d d8be 7a92 803d 630e 0fbf
